models/fashionMnist_model.pth (torch, 179893 bytes, 10 tensors)

conv_block_1.0.weight f4 [32, 1, 3, 3]
000000 74 b4 80 3d cc 1d 02 be 0b 3a 02 be 86 83 97 be
       0.06284419 -0.12706679 -0.12717454 -0.29592532
000010 70 36 04 3f db 49 d6 be 16 ec 26 3e 25 fd 64 3e
       0.51645565 -0.41853222 0.16300997 0.22362192
000020 46 ac b0 bd 2b b6 9d be 66 3d c9 3e b2 e8 af bd
       -0.086266086 -0.30803046 0.39304656 -0.08589305
000030 c0 3f 89 bd 3a 8f d0 be 08 74 1f 3d 7e 3e a0 bc
       -0.067016125 -0.40734273 0.038929015 -0.019561049
000040 b2 ab 73 be d8 6c 87 3e 38 76 ef 3c 9b 84 3f be
       -0.23795965 0.2645023 0.029231176 -0.18702929
000050 c9 56 3a be 1b 4a a1 bd 8b fa f2 3d d9 67 07 be
       -0.18197168 -0.078754626 0.118641935 -0.13223208
000060 cb 2e 59 be 15 58 14 be 40 69 89 be 98 98 d7 bd
       -0.21209256 -0.14486726 -0.26838112 -0.10527152
000070 86 32 19 3e ad 70 76 bf 89 76 0e 3d 8c c8 2f 3e
       0.1496068 -0.9626568 0.034781013 0.17166346
000080 b2 92 97 3d 91 55 0e bf 55 0e a8 3d 06 a3 91 3c
       0.07401027 -0.55599314 0.082058586 0.017777931
000090 86 e5 41 be a6 02 98 be 84 e1 89 bd 0b f9 cb 3c
       -0.18935212 -0.2968952 -0.06732467 0.024899026
0000a0 4c cc 10 3d bc e6 39 be 2a be d9 3d 86 51 4e 3e
       0.035351083 -0.18154424 0.10631974 0.20148286
0000b0 d1 8e fa be b0 ce 1b bd 75 8b 21 bd 31 1d 32 bd
       -0.48937085 -0.03803891 -0.039439637 -0.04348487
0000c0 e4 f1 b8 3d 2c 8e bb 3d 2c 6e 23 bf 70 98 08 bf
       0.09030512 0.091579765 -0.63839984 -0.533576
0000d0 fa 85 c1 3e 44 29 df 3d df 5a cd bd 48 55 88 bf
       0.37797529 0.10896543 -0.10027098 -1.0651026
0000e0 15 15 68 be 8f bf c6 be 70 5d 82 be 8c 0b 9b 3e
       -0.22664292 -0.38818023 -0.25461912 0.30282247
0000f0 4e f6 42 3e 93 4b ba 3d e5 62 c5 be 72 b0 6d be
       0.1903927 0.09096446 -0.38552013 -0.2321184
000100 c1 1b b3 bd fb f0 bb 3e e4 ea b7 3c a4 73 81 be
       -0.08745528 0.3670729 0.022450872 -0.2528354
000110 fd 6a b8 3e b1 70 99 bd 07 31 d6 be 7e 3c d9 3e
       0.36019126 -0.07492197 -0.4183428 0.42428964
000120 a8 75 04 3e b6 b6 19 be d9 2e 34 bf 63 b7 6c 3e
       0.12935507 -0.15011105 -0.70383984 0.23116831
000130 d1 a4 f6 3e 03 e7 29 3e 41 96 d2 be 9d db 5c be
       0.4817262 0.1659203 -0.4113026 -0.21568151
000140 ac 2f 9f bd 52 85 f4 bd 21 e6 97 be ae e0 a9 3e
       -0.077727646 -0.11939491 -0.29667762 0.3317923
000150 d8 b4 c4 bd 22 29 bf be 21 07 cf be e5 fb 13 bf
       -0.09604806 -0.3733607 -0.40435126 -0.57806236
000160 97 ab 94 be 84 ae bc be 63 3d fb 3e 0d 96 8a be
       -0.29037163 -0.36851895 0.49070272 -0.27067605
000170 88 17 41 be 1b 0d d9 be 12 69 9d bf 53 6d 0e bf
       -0.18856633 -0.4239281 -1.229769 -0.55635566
000180 b0 fb 1a be 14 fd d4 be e2 47 b2 3b 11 f9 ef 3e
       -0.15135074 -0.41599333 0.005440698 0.4686971
000190 2f 35 8a be a1 d6 c3 bf 40 ce 9e 3c 9d 04 aa bc
       -0.269937 -1.5299875 0.019385457 -0.020754153
0001a0 45 d6 64 bf 3a ab fd be c7 43 10 3f 6c 9c 5c bc
       -0.8938945 -0.49544698 0.5635342 -0.013465028
0001b0 48 23 fc 3d 50 23 0a 3e ea 1e ef 3d 8c ca 28 bf
       0.12311417 0.13490033 0.11675818 -0.6593406
0001c0 10 98 91 3e 79 ea 01 bf 06 d6 46 bd 02 0c 89 3e
       0.28436327 -0.507484 -0.048543952 0.26766974
0001d0 4f d0 94 be 4f 87 21 3e aa d8 2b be d6 94 dc be
       -0.29065177 0.15774272 -0.1678187 -0.43082303
0001e0 8c a9 ba 3e eb 57 de be 28 d4 35 3e ff 50 9f 3e
       0.3645748 -0.4342645 0.17756712 0.31116483
0001f0 04 86 bd 3e f6 73 76 3c 16 3a 8c be f0 7b 99 3d
       0.37016308 0.015042296 -0.27388066 0.07494342
000200 d6 8f 3c 3e b4 dd a9 be 46 f4 9a bd 38 9d 4c be
       0.18414244 -0.3317696 -0.07566123 -0.19981849
000210 96 d5 ee bc 46 02 28 be a8 86 0b be 47 24 28 3d
       -0.02915458 -0.16407117 -0.13625586 0.04105022
000220 4a 06 7d be 8d 7a a7 3e f6 00 06 3f 88 f9 0a bf
       -0.2470943 0.32710686 0.52345216 -0.54287004
000230 08 dd 5a bd bb d5 e5 be 84 09 20 c0 8a 6b be be
       -0.053433448 -0.44889626 -2.5005808 -0.3719142
000240 20 21 37 3e b6 33 19 bf f3 ed af bf e1 71 15 be
       0.1788373 -0.5984453 -1.3744491 -0.14594223
000250 22 aa 99 bf aa dc 00 c0 af 4a 60 3e 13 8f b7 3c
       -1.2005045 -2.0134683 0.2190349 0.02240709
000260 9d 70 af bd 63 4a 14 be 6e 66 cb be 80 ea 92 3e
       -0.08566401 -0.14481501 -0.39726585 0.28694534
000270 4d e2 ba bd 15 cb 9a 3d ef 20 62 bd d1 2d 0d be
       -0.09125195 0.07558266 -0.05520719 -0.13787009
000280 93 9e 54 3e c9 59 5c 3d 85 71 f2 be 03 f9 71 3c
       0.20763616 0.053796563 -0.47352234 0.014768842
000290 bb 8a 5c 3e 47 96 22 be 68 cb a0 3e 6e 6f 93 3e
       0.21537296 -0.15877639 0.31405187 0.28795952
0002a0 93 dc e8 bd 22 e5 1b 3e a8 7f 88 be 65 27 93 3d
       -0.11370196 0.15224126 -0.26659894 0.07185248
0002b0 bc 46 cb 3d 69 c9 63 3e 2a 07 12 be 39 4a a6 bf
       0.09925601 0.222448 -0.14260545 -1.2991401
0002c0 15 9b 99 bd 83 31 07 bf d7 db b2 bf c3 0d af bd
       -0.07500283 -0.52809924 -1.397334 -0.08547547
0002d0 80 5b 9a 3e 3c be b9 3d 6f 8c d8 be c7 c6 5a be
       0.30147934 0.090694875 -0.42294642 -0.2136489
0002e0 a6 df 6a 3e 2b 57 01 bf 17 f2 0d 3d 94 b0 a7 3e
       0.22936878 -0.5052363 0.034654703 0.32751906
0002f0 85 64 de bc 74 09 a8 be 3a 6b 35 3e 86 cb 85 3e
       -0.02714754 -0.32819712 0.17716685 0.2613184
000300 02 b1 ec be cf d8 10 be 2c f8 f2 be c8 92 c8 bd
       -0.46228796 -0.14145206 -0.47454965 -0.09793621
000310 d3 4e 3f 3f e3 d8 0b be 07 aa 27 bf 49 d5 9f be
       0.7472965 -0.13656954 -0.65493816 -0.3121741
000320 a6 85 f5 3c f7 74 77 3d dd a2 95 3e 00 fe bc 3e
       0.029970955 0.06041428 0.29225817 0.36912537
000330 6d 67 80 bf 37 8d f8 bd 9a 3c e7 bd ed 10 02 be
       -1.0031563 -0.121363096 -0.11290856 -0.12701769
000340 70 46 57 bf 9b 10 ae 3e 4c ec 38 be 01 6c ba bf
       -0.84091854 0.33997044 -0.1805889 -1.456421
000350 4f f2 b9 be 89 39 8e 3e 1a a3 c4 3d 87 cc cf 3d
       -0.3631768 0.2777827 0.09601422 0.10146432
000360 5d 3d ee 3e c1 5b 0e bf ce 88 fa bf 0d ab 4b bf
       0.4653119 -0.55608755 -1.9573 -0.7955788
000370 0b ca 3f bd 04 3d 82 bf c5 f3 8f bf e9 98 0b bf
       -0.046823543 -1.017487 -1.1246268 -0.545302
000380 c2 23 cd bf 68 48 34 be 7e 2f 3e 3d 20 95 40 3e
       -1.6026537 -0.17605746 0.04643201 0.18806887
000390 e3 30 a6 3e 24 85 a6 be a2 4f da 3e 96 c3 83 be
       0.32459173 -0.32523453 0.4263888 -0.25735158
0003a0 c9 c4 82 3d da 1a d0 3e b3 bb 7b 3d ea 68 cb 3e
       0.0638519 0.40645486 0.0614583 0.3972848
0003b0 93 03 e1 be db e9 89 be 2b 74 b9 3e 23 f2 5a be
       -0.4394804 -0.2693623 0.36221442 -0.2138143
0003c0 69 6e 24 bf be 22 93 be a4 60 fd bb 25 1a 8b 3e
       -0.6423097 -0.28737444 -0.0077324677 0.27168384
0003d0 cf 70 9e 3e 98 da 33 be e3 32 05 bf f0 5d 05 3e
       0.3094544 -0.17563856 -0.5203077 0.13024116
0003e0 95 ab 59 3e 5b bf 18 bf 8f 1f 7b bb 5a 93 d3 3e
       0.2125686 -0.59666985 -0.003831837 0.41323358
0003f0 2b 86 d9 3c 00 68 76 3c 30 01 a8 bd d2 8d 9a be
       0.026553234 0.015039444 -0.082033515 -0.30186325

conv_block_1.0.bias f4 [32]
000000 b2 71 1b 3d f1 2d 71 bd 58 bd 26 be 1c de fd bc
       0.037950225 -0.058881704 -0.16283166 -0.030989699
000010 40 5b 9a bd 14 f0 dc bc 9a 95 c9 3d 5d 38 21 3b
       -0.07536936 -0.026969947 0.09842987 0.0024600246
000020 d1 fa d5 bd df e2 74 3c 5b 1a df 3d 31 da 4b bd
       -0.1044823 0.014946668 0.10893699 -0.04976863
000030 4a 15 b2 bd 4c 83 93 be 24 b5 8b be 50 0e 06 3e
       -0.08695467 -0.2881111 -0.27286637 0.13091397
000040 ab b0 b9 3d e0 92 03 bd 5a 49 d6 3c 66 5a 96 3d
       0.090669 -0.032122493 0.026158024 0.07341461
000050 12 ee 96 bd ca 21 08 be a0 a3 22 bc d8 ef 76 3d
       -0.07369627 -0.1329414 -0.009926707 0.060287327
000060 2f ae e7 3d 07 f6 fc be aa fe 70 3d f0 81 03 be
       0.1131252 -0.49406454 0.058836617 -0.12842536
000070 57 d0 8d be 3d ff 6d bc 54 86 d5 3d a7 54 44 3d
       -0.27698013 -0.014526186 0.10426012 0.047932293

conv_block_1.2.weight f4 [32, 32, 3, 3]
000000 df d9 80 bc 83 5c 02 bf 86 27 7b 3d a0 76 4d be
       -0.015728889 -0.5092241 0.06131699 -0.20064783
000010 95 43 01 be 03 3e ba 3d 49 01 92 bd 5b ce bb bd
       -0.12623437 0.09093859 -0.071291514 -0.091702186
000020 df a9 0d 3d 20 c7 86 be 50 28 4e bd 9b ec 08 bf
       0.03458583 -0.26323795 -0.050331414 -0.5348603
000030 21 5e b8 3d 2b 09 91 be 3e 98 86 be ce 04 b9 bd
       0.09002329 -0.28327307 -0.26288027 -0.090341195
000040 39 9f b0 be 7d a9 05 3e c7 8c 5c 3d 2f ca 6a 3d
       -0.34496477 0.13052936 0.053845193 0.057321724
000050 4e dc 6f 3c 6e 1d d6 3c 67 53 5e 3c ee c9 bf bc
       0.014639927 0.02613708 0.013569689 -0.023411717
000060 34 45 b8 3b 1a 1f 86 bb b4 59 ef 3c 45 5e 11 3d
       0.005623484 -0.004093063 0.029217578 0.035490293
000070 cf b0 00 be 7e 60 a7 be 51 56 ab 3e 8d 1d d7 bc
       -0.12567447 -0.32690805 0.33464292 -0.026259208
000080 ec ef 4f be 22 20 7d 3e 54 56 f5 be 68 61 e0 be
       -0.20306367 0.24719289 -0.47917426 -0.43824315
000090 bd 47 80 3e 75 1c 8c bd ad fe 89 bc e0 9d 39 be
       0.25054732 -0.06841365 -0.016845072 -0.18126631
0000a0 2b 35 88 bd 69 b5 b2 3d eb 3f 19 bf 54 81 09 3e
       -0.06650766 0.087260075 -0.59863156 0.13428241
0000b0 6a c3 19 3d 0b e6 92 be cf bf 07 3e 91 2b d3 bd
       0.037539877 -0.28691134 0.13256763 -0.10311044
0000c0 26 63 94 3d 7c fc 0f bc cd 7a 19 3e 6b 88 5c 3d
       0.072454736 -0.008788224 0.14988251 0.053841036
0000d0 65 c8 06 3e e6 5d 9a be 56 f5 04 be 4f e4 8e bb
       0.13162382 -0.30149764 -0.12984213 -0.0043607126
0000e0 04 6d c7 bd 5b f0 12 be 15 12 eb bc da 78 ad bc
       -0.0973759 -0.14349501 -0.028695146 -0.02117579
0000f0 5a 4c e0 bd 0d 2c af 3d ff ca 66 3d 68 b7 84 bd
       -0.10952063 0.08553324 0.056345936 -0.064802945
000100 57 95 30 3e 1f 60 d5 3d 16 be 81 3d 51 82 c6 3d
       0.17244469 0.10418724 0.06335084 0.09692825
000110 65 57 aa bd dc 59 9c bd 74 a2 e9 bd b1 31 67 bc
       -0.083174504 -0.07634327 -0.114079386 -0.014110968
000120 5f 33 c5 bd 24 02 d9 bd 76 95 17 3d 74 ea 00 bd
       -0.09628939 -0.105961114 0.03700777 -0.031473592
000130 01 8f 27 3e d4 b3 93 be 88 6a 13 3e dc cd af 3d
       0.16363145 -0.28848135 0.14396107 0.085841864
000140 fc bd 97 be da 67 29 3e 5e 2b 44 3e 08 6a fa bd
       -0.29637134 0.16543522 0.19157168 -0.12227255
000150 8f 16 9f 3d 70 d8 e6 bd a9 cd 10 3e 81 b0 5e be
       0.077679746 -0.11271751 0.14140953 -0.21747018
000160 54 80 76 bd b6 59 85 3e 39 ba 9f 3d 2d f2 d4 3d
       -0.060180977 0.26045007 0.07799191 0.10397754
000170 74 c6 16 be 49 c5 a3 3e fc c8 b0 bd d2 e3 95 be
       -0.14724141 0.31986454 -0.08632085 -0.29275376
000180 be da f3 be 04 27 41 be 4f 8a c5 3e 45 e9 02 bf
       -0.47627825 -0.1886254 0.38582084 -0.5113719
000190 2a 17 ea 3d 00 aa c3 be 33 08 89 3e e7 4f d4 be
       0.114301994 -0.38215637 0.26764068 -0.4146721
0001a0 73 09 52 be 0b 10 32 bd 7e 87 24 bf e3 ed 1c 3e
       -0.20511417 -0.04347233 -0.64269245 0.15325122
0001b0 42 73 1f be 5d 7b 18 be b6 db 1d be f3 5b 24 be
       -0.15571311 -0.1489081 -0.15415844 -0.16050701
0001c0 6b 24 0b be c9 7b 48 be ed 41 8a 3d fd 99 ce 3e
       -0.13588111 -0.1957847 0.067508556 0.4035186
0001d0 bb 38 d4 bd eb 8e 37 be f3 c1 31 3e 30 2c 71 be
       -0.10362383 -0.17925613 0.17359142 -0.23552012
0001e0 b2 03 16 3d ed df 8d bd 8f 40 04 be 86 86 bd 3d
       0.036624618 -0.06927476 -0.12915252 0.09254174
0001f0 fd 36 7b 3d d8 a0 c4 bd a9 9e 9a bb 04 74 54 bd
       0.061331738 -0.09600991 -0.004718621 -0.051868454
000200 c0 71 28 3d a9 9f df 3b 1b 15 02 bd 2a 42 fc 3c
       0.041124105 0.006824453 -0.03175841 0.030793268
000210 d4 6d 64 bd 0c b7 ba bc ca 15 3c bc 19 2e d3 bd
       -0.055768803 -0.022792362 -0.011479804 -0.10311527
000220 1e 9d e2 be 8e 8e 0c bf ba 67 07 be 03 11 d3 be
       -0.44260496 -0.5490502 -0.13223162 -0.41223916
000230 ce a3 06 3e 78 03 0a bd 7c 93 c6 be 1a 0a 04 3f
       0.13148424 -0.033694714 -0.38784397 0.51577914
000240 3a 87 c2 bc 0f 43 7f be 3b 55 be 3d 89 60 35 bd
       -0.023746122 -0.24927925 0.092936 -0.044281516
000250 20 45 8c be 55 9d 73 be 4e ee 36 bf be c8 b3 be
       -0.27396488 -0.23790486 -0.71457374 -0.35114092
000260 01 e7 42 be 05 fe 2c be 88 46 9e bd f5 21 93 3e
       -0.19033433 -0.16893776 -0.077282965 0.28736845
000270 0e 6f 68 be 7d 4b 1c 3e 46 e7 45 be 71 19 24 3e
       -0.22698614 0.15263171 -0.19326505 0.1602533
000280 03 af 15 3d 12 01 8b be 82 4b 76 be 15 f5 6e bd
       0.036543857 -0.27149254 -0.24052241 -0.058339197
000290 9f c5 8a 3e 32 aa f5 bd bb bb 00 3e 8c 9a f5 3d
       0.27103898 -0.11995353 0.12571613 0.11992368
0002a0 77 ea da bc 4b c2 35 3e 11 d7 6f be 72 3f a1 3e
       -0.02672313 0.17749898 -0.23421885 0.31493717
0002b0 bc 44 27 bd 62 fa eb 3d 67 70 73 3e dd 52 9f be
       -0.040837035 0.11522366 0.23773347 -0.31117907
0002c0 51 77 a3 be e0 a6 62 3d 7a 87 9c be 21 17 16 be
       -0.3192697 0.055334926 -0.3057211 -0.1465726
0002d0 ae ae 63 bd be 51 64 be 3c d1 a3 bc 23 4a a2 3d
       -0.05558651 -0.22296807 -0.019997232 0.07924297
0002e0 a2 80 47 be 45 6e d8 3c 08 1d 09 be aa ff 6e be
       -0.19482663 0.026419768 -0.13389981 -0.23339716
0002f0 9d 25 75 3e 13 47 c2 be f9 31 c4 bd 2d 18 92 3d
       0.2394013 -0.3794485 -0.09579844 0.071335174
000300 c1 9e 1d bf ad d6 86 3d 98 3e 2d 3e b8 a5 2b 3e
       -0.61570364 0.06583915 0.16918409 0.16762435
000310 79 4e 1e 3e 2f b1 93 3e 45 d4 be be 4f c5 d9 bc
       0.15459622 0.28846118 -0.37271324 -0.026583342
000320 ca dc 02 3f 91 0b 5c 3d fd 58 40 3d 80 13 d6 be
       0.5111815 0.053721968 0.046959866 -0.41811752
000330 fb 0e c9 3d 4e 25 2f 3e 5d 54 e5 be d0 69 28 be
       0.098173104 0.17104074 -0.44790927 -0.16446614
000340 2a dd 9b be 08 2e e5 bd 61 9a 82 be 7b 9f 9b bd
       -0.30442172 -0.111904204 -0.25508407 -0.07598778
000350 f8 11 dd be 1e d6 8d 3e f6 de d3 3d 7b 91 18 3c
       -0.43177772 0.2770242 0.10345261 0.009312029
000360 8b c8 99 3d 8c 6a 9b be 7a 8a b6 bd 92 f1 6a be
       0.07508954 -0.30354726 -0.08913131 -0.22943714
000370 28 61 45 bd 58 74 c4 bd 74 75 61 bf fd 0d 8b be
       -0.04818836 -0.09592503 -0.88069844 -0.2715911
000380 7c 2a 6b be f5 1b 4a be 59 56 88 3e 49 44 a2 bd
       -0.22965425 -0.19737227 0.26628378 -0.079231806
000390 a7 01 c9 3d 21 0b 69 3e f9 0d 00 3d fa 0c 1e be
       0.09814768 0.22758152 0.031263325 -0.15434638
0003a0 c7 32 7e be 40 00 85 bc d5 60 c4 3e 04 35 77 be
       -0.24824058 -0.01623547 0.38355127 -0.24141318
0003b0 a7 dd 98 be 77 c7 da 3e 47 14 b7 be d6 fa 27 bd
       -0.29856607 0.42730305 -0.35757658 -0.0410107
0003c0 03 33 8e be 6a 3f 08 3f c4 c5 26 be 14 08 9e bd
       -0.27773294 0.5322176 -0.16286379 -0.077163845
0003d0 dc 63 2f 3e cb d6 76 bd 16 7c 2f 3e 7e e6 19 b9
       0.17127937 -0.060263436 0.17137179 -0.00014677082
0003e0 d5 0f 0d bd 5c 41 8b 3d 9b 99 3a be 86 6e 8e be
       -0.034438927 0.06799576 -0.18222658 -0.27818698
0003f0 8c 80 af 3c 1c 33 3f 3d 06 ca b4 bc 31 74 a2 3c
       0.0214236 0.0466796 -0.022068989 0.019830795

conv_block_1.2.bias f4 [32]
000000 b8 47 25 bd 48 df 27 bd ae 66 96 bc 7b ad a5 bd
       -0.0403516 -0.040984422 -0.018359508 -0.080897294
000010 22 73 da 3c 68 98 02 3d a1 90 0b bb 87 49 01 3e
       0.026666228 0.031883627 -0.0021295922 0.12625705
000020 f2 97 54 be ba 9b ab 3d 66 3c a7 3d 8f 03 37 bc
       -0.20761088 0.08379312 0.08165817 -0.011170282
000030 d0 ba d0 3d 1d 60 95 bd 4d b7 9d bb a4 35 a3 3b
       0.10191882 -0.07293723 -0.004813111 0.0049807597
000040 75 28 da bd 89 d7 c6 bd 51 6d f3 3c 51 77 b7 bc
       -0.10652248 -0.09709079 0.029715212 -0.022395762
000050 50 69 83 3d f8 65 d9 bd 0e f0 95 3d 23 c4 d4 bc
       0.06416571 -0.10615152 0.073211774 -0.025972432
000060 34 af 0f be 3e 9b 29 3d dc 66 fd bc c7 04 f3 3c
       -0.14031678 0.041407816 -0.030932836 0.029665364
000070 82 8a e1 bd 87 48 e2 bb 4b 88 55 bd 1f d7 2f bc
       -0.110127464 -0.0069056186 -0.052131932 -0.010732441

conv_block_2.0.weight f4 [32, 32, 3, 3]
000000 21 b4 1c be 5f 18 1f 3e fc 89 ed be 8a 21 12 3e
       -0.15303089 0.1553664 -0.46394336 0.14270607
000010 cf 56 2e be 34 27 13 bf 2d 0a 28 bc c2 cc a0 be
       -0.17025302 -0.57481694 -0.010256332 -0.31406218
000020 c6 54 ef bd d7 28 18 bc 96 19 6b 3e e5 a2 8a 3d
       -0.11686091 -0.009287081 0.22958979 0.06769351
000030 ea ed 69 3d f0 23 72 be b3 af 0f bd 00 4f 9a 3c
       0.05711166 -0.23646522 -0.03507967 0.018836498
000040 78 27 be be fe 1b c4 be 3a 45 08 3b 49 dd de bd
       -0.37139487 -0.38302606 0.0020793215 -0.108820505
000050 af 57 57 bf 5e 62 97 3d 62 7d 3c bf a2 b5 20 bf
       -0.8411817 0.07391809 -0.7362882 -0.6277715
000060 ed 61 fc 3d c7 c4 7f be 54 86 64 be 48 dd 7e 3e
       0.12323365 -0.24977408 -0.22316867 0.248891
000070 9a 7d f4 bd c8 a6 8b be c5 43 ef bd ca bb 1b be
       -0.11938019 -0.27275681 -0.11682848 -0.15208355
000080 62 1c a8 be 82 85 16 3d d6 70 73 be 58 de 87 bf
       -0.32834154 0.036748417 -0.23773512 -1.0614729
000090 56 09 99 be a0 86 d7 be 22 e9 99 be 9f 2d 06 3e
       -0.29889935 -0.42094898 -0.3006068 0.1310334
0000a0 dd a8 44 3e 52 a0 1d bf e7 c2 3c be aa 7a 4f 3a
       0.19205041 -0.61572754 -0.18433724 0.0007914702
0000b0 68 69 a8 be 8c 92 ec bd 39 3c 27 3e 0f a3 43 3e
       -0.3289292 -0.11551389 0.16331567 0.1910517
0000c0 c8 88 1e 3e 4f ae 7e 3e 35 16 d9 bd 09 86 13 3e
       0.15481865 0.24871181 -0.10599939 0.14406599
0000d0 b5 9f f1 ba 8a e9 ab 3d 2c 47 9c bd 17 3a 42 3b
       -0.0018434437 0.083941534 -0.076307625 0.0029636675
0000e0 a4 c8 07 bf 88 d8 cf 3d 71 98 0c bf da 14 41 bf
       -0.5304053 0.10148722 -0.5492011 -0.7542244
0000f0 d0 3b ce bd 04 31 da be 7c 45 5e be 36 3f 7e be
       -0.10070002 -0.4261552 -0.21706194 -0.248288
000100 61 17 a5 3d 48 ac 2a bd 95 1d 9f be da 75 68 3e
       0.080611 -0.041668206 -0.31077257 0.22701207
000110 6d 8a 16 3e af 0a 55 be b5 d8 55 3d 4f 91 64 3e
       0.14701243 -0.20804857 0.05220862 0.22321056
000120 46 f4 a3 3d 31 e3 8d bc b0 9a c4 be 0c 46 be bc
       0.08005576 -0.017320247 -0.38399267 -0.02322676
000130 18 20 1e bd 5a 08 dd be 61 4a 22 be 3f 43 54 be
       -0.038604826 -0.43170434 -0.15848686 -0.20728777
000140 2d 3e 8c bf 9b 87 7e bd 5a ca 04 be 15 ef 75 3d
       -1.0956475 -0.062141042 -0.12967816 0.06004246
000150 cc 45 19 3e d6 54 b8 3c cf 98 cd 3d b5 44 ae 3d
       0.14968032 0.02250139 0.100389116 0.085091986
000160 64 18 9d 3e 4f d9 8a 3e f5 47 8e bd d1 89 27 be
       0.3068267 0.27118918 -0.069473185 -0.16361167
000170 4f 9a 13 be f0 b4 98 3b 6b c1 66 3e 11 8e 04 bf
       -0.14414333 0.0046602413 0.2253472 -0.51779276
000180 ce 65 a2 3d d9 24 1f 3e a0 99 b6 3d 9f e1 03 bf
       0.07929574 0.155414 0.089160204 -0.51516145
000190 02 e1 9e 3d 54 a6 25 3e d0 8f 53 be 4b 57 f3 bd
       0.077577606 0.1617673 -0.20660329 -0.11881884
0001a0 6e a7 a7 be 1a 44 bf bd 49 88 38 be 19 57 37 be
       -0.32744926 -0.09339161 -0.18020739 -0.17904319
0001b0 b8 1c f0 3d 44 69 1f 3e be 85 ba bd 37 53 5b 3e
       0.11724228 0.155675 -0.091075405 0.21418463
0001c0 77 b4 b4 3e d1 0f 88 bd e7 46 96 3c 7b 1f 84 3e
       0.35293934 -0.06643642 0.018344356 0.25805268
0001d0 99 f6 f0 3d 0d 77 f3 3c 6b 2b c6 bc 9b af 2d bd
       0.11765785 0.029719854 -0.024190625 -0.0424038
0001e0 34 11 76 3c 24 f0 cb 3c b7 08 0e bc 84 1f e4 bc
       0.01501875 0.024894781 -0.00866907 -0.02784706
0001f0 72 6a 02 3a 14 00 7c bd 54 e0 14 be 3b 34 a4 ba
       0.0004974968 -0.061523512 -0.145387 -0.0012527773
000200 fa b1 b1 be fa af bc bd 32 34 1f bd 7a bd 19 bf
       -0.34706098 -0.09213252 -0.038868137 -0.60054743
000210 e6 01 26 bd e9 86 a3 3d 04 73 4f be 16 29 83 be
       -0.040529154 0.079847164 -0.20258719 -0.25617284
000220 16 01 0d 3d b7 6f 84 be 26 0f 0a 3e b6 cd b7 bc
       0.034424864 -0.25866482 0.13482341 -0.022436958
000230 15 70 24 be db 32 85 3e 6b d9 70 3d 15 a6 4e be
       -0.16058381 0.26015362 0.058801096 -0.20180543
000240 fb a6 25 3e 21 5b bc 3d 9a 48 fb bc 15 21 0d 3e
       0.16176979 0.09197069 -0.030674268 0.13782151
000250 1c a6 3d be 7f ff 8b be c2 17 f4 bd 84 45 2a be
       -0.18520397 -0.27343366 -0.11918594 -0.1662808
000260 ec 44 9b bf 63 57 18 bd 0e 82 b3 3d 1b 79 9e bd
       -1.2130408 -0.037192713 0.0876504 -0.07737943
000270 a5 c2 99 3e 8a a1 66 3d 4e 12 88 be f5 b1 93 be
       0.30031314 0.0563064 -0.26576465 -0.28846708
000280 34 9a d0 be 2a a2 9b bd 57 34 92 be 81 a1 39 be
       -0.40742648 -0.0759929 -0.28555557 -0.18128015
000290 58 63 ce bd 52 97 60 3e 04 25 02 be 4f 1d ae 3e
       -0.10077542 0.21932724 -0.12709433 0.34006736
0002a0 2e 96 11 be 49 4f f4 bc 6d a1 b2 3e 17 12 b4 bc
       -0.14217445 -0.029822962 0.34888783 -0.021981282
0002b0 17 22 8f bd 08 77 84 bd 74 0b d2 3d 5b 1f cf 3d
       -0.06988924 -0.06468016 0.10256091 0.101134025
0002c0 93 d7 50 3d 58 0b be 3c 0b dd bc bd 4b bf 84 bd
       0.050986838 0.023198768 -0.09221848 -0.06481799
0002d0 45 ea 75 be 2e dd 31 bd b7 d2 30 be 18 46 b3 bc
       -0.24015148 -0.043423824 -0.17267881 -0.02188401
0002e0 11 24 7e bd b7 9d 3e be 0a e8 10 3d 7a ed be bc
       -0.062046114 -0.18614851 0.03537754 -0.023306597
0002f0 fd ad 42 bd cc 11 96 3e a3 ed e8 3d f8 17 16 be
       -0.04752921 0.29310453 0.113734506 -0.14657581
000300 cc 3a 40 bd e4 5d c5 bd fa 61 a0 bd 9d 03 85 bd
       -0.046931073 -0.09637049 -0.078311875 -0.0649483
000310 6b e3 ad be cb 0d a1 bf e6 28 be 3b 60 f9 5f bc
       -0.3396257 -1.2582334 0.0058032153 -0.0136702955
000320 a3 49 b5 be 41 96 99 3e 1c 93 b3 bd 6a ac 52 be
       -0.35407743 0.29997447 -0.08768293 -0.20573583
000330 dc 8c 89 3c 40 fa ac be a0 d5 c6 3d f2 07 83 3d
       0.0167908 -0.33784676 0.097087145 0.06398
000340 5a a7 66 be c4 f6 61 bf 87 ef 7a 3d 45 93 ca be
       -0.22524777 -0.8826716 0.061263587 -0.39565483
000350 28 33 2b bf 3b 4b 04 bd 14 49 a1 3d 0f 21 05 be
       -0.66874933 -0.032298308 0.07875267 -0.13000892
000360 61 6a 02 ba 16 71 2d 3d 83 a2 c1 be 43 aa 5f be
       -0.0004974958 0.042344175 -0.378193 -0.21842293
000370 c2 f2 02 3d dc 24 80 3d c7 76 1d 3e 27 6f de 3d
       0.031969793 0.0625703 0.15377341 0.108610444
000380 ac e0 1f be 95 46 80 be 21 f6 96 3d 93 ef 28 be
       -0.1561305 -0.2505385 0.07371164 -0.1649764
000390 37 18 85 bd 63 b4 4d 3e 32 55 91 3e ab 08 17 3b
       -0.06498759 0.20088343 0.2838531 0.0023045938
0003a0 e6 5a 3e be 85 8d 26 3d 3d 79 a8 bd 9d fd f5 3c
       -0.18589363 0.040662307 -0.08226249 0.030028159
0003b0 31 75 30 bf 1e 05 a5 3d a9 2a a1 3d 68 30 b1 bf
       -0.6892882 0.08057617 0.07869465 -1.3842897
0003c0 a2 98 93 bd 6e d1 9b 3d 1d 7e d2 be 09 ef ba be
       -0.07206847 0.07608305 -0.41111842 -0.36510494
0003d0 b4 3c 45 3e 92 5e 0f be fc db af 3e 42 d4 0c 3e
       0.19261438 -0.1400092 0.34347522 0.13752845
0003e0 00 35 d4 3d 18 af c1 bd a7 48 9d 3e 5b ef 0b be
       0.103616714 -0.094572246 0.30719492 -0.13665526
0003f0 fb d4 37 3e b2 b2 a1 3d 2a 85 05 be 44 b0 40 be
       0.1795234 0.078954116 -0.1303908 -0.1881724

conv_block_2.0.bias f4 [32]
000000 8d cc f7 3e b7 1a d4 3d 51 bc 35 bd 74 47 96 bb
       0.48398247 0.10356658 -0.044369046 -0.0045861546
000010 c4 d0 8f 3e fd 00 32 be 7c 5e 5b 3e 38 7a 0e 3d
       0.28088963 -0.1738319 0.21422762 0.034784526
000020 3e 49 1e be 40 25 e5 bd 41 79 01 be de ff 86 be
       -0.15457627 -0.111887455 -0.12643911 -0.26367086
000030 9f 09 4b bd 26 cd 26 3e bb 70 96 3c b2 1b 3f be
       -0.049569722 0.16289195 0.018364301 -0.18662909
000040 95 be 16 3c dc d6 a5 3e 01 51 6c 3e 0c a0 92 3d
       0.009200712 0.32390487 0.23077776 0.07159433
000050 f1 09 b2 3e 64 9f 37 3d b8 b5 56 be 72 db 5b 3e
       0.3477321 0.04482974 -0.20967758 0.2147043
000060 45 4b 0b be 54 c5 0d 3e 38 06 0a be 9a 63 b0 3d
       -0.13602932 0.13844806 -0.13478935 0.086127475
000070 75 e8 8e 3e f4 91 72 3e ac c0 a7 3e 10 a1 85 3e
       0.27911726 0.23688489 0.32764184 0.26099443

conv_block_2.2.weight f4 [32, 32, 3, 3]
000000 cd f9 7d 3e 2f 38 c5 bc 51 60 7f 3d 97 48 c7 3d
       0.24802323 -0.024074642 0.062347714 0.09730642
000010 75 9c 94 3d 56 bb 06 bf 95 66 9c 3d 85 cf 9c bd
       0.07256404 -0.526296 0.076367535 -0.07656769
000020 72 75 83 be 20 d9 2c be 71 fb 55 bc bd b4 77 3e
       -0.2567554 -0.16879702 -0.013060437 0.2419004
000030 c7 2e e7 be d5 32 25 bd 84 f8 eb 3c d7 f0 cc be
       -0.45152876 -0.04033168 0.028805025 -0.40027496
000040 18 00 3a be 9a e0 6b be 9b d3 11 bc 1a 04 4e 3e
       -0.18164098 -0.23034897 -0.008900548 0.20118752
000050 6f a5 bb 3a eb 1f 4c 3e 20 6a a0 3c d1 15 3b 3e
       0.0014316271 0.1993405 0.019581854 0.18270041
000060 2a be f0 bd 5d fb b3 be 71 2d 07 3e cc fa 6a 3e
       -0.11755021 -0.35152712 0.13200928 0.22947234
000070 aa 89 02 3c 9a 99 38 3e 28 ff 6a be 79 e4 25 3e
       0.007967392 0.18027344 -0.22948897 0.16200437
000080 70 fa 26 3e bd db e8 be c9 10 c2 3b 16 38 3b bd
       0.16306472 -0.45480147 0.005922411 -0.045707785
000090 b0 46 f0 3d c1 9c c3 3d b1 fa ef 3d a5 2f a4 be
       0.117322326 0.09551383 0.117177375 -0.320676
0000a0 3e bc 80 be 96 60 03 be b1 1c 3d 3d 44 41 99 be
       -0.25143617 -0.12829813 0.04616994 -0.29932606
0000b0 7f 55 20 bd dc 3e f6 bc 41 7a 81 3d 48 fa ea 3d
       -0.039144035 -0.03005927 0.06322146 0.114735186
0000c0 ed 68 df 3c 1c 0b 00 bf a1 94 69 be af b5 5f 3e
       0.027271712 -0.5001695 -0.22810604 0.2184665
0000d0 dc 13 29 3e 20 4f 43 be 0f 7b 0f 3e 23 b5 2f 3e
       0.16511482 -0.19073153 0.14011787 0.17158942
0000e0 39 7e ce be 4a 06 30 3c 6f 44 02 be 0e 16 06 bf
       -0.40330675 0.010743687 -0.12721418 -0.523774
0000f0 78 73 23 3e a7 e0 22 be 46 42 a1 be e7 ca 9f be
       0.15962017 -0.1590601 -0.31495875 -0.3120949
000100 9a c9 b1 bb a0 48 02 3e c0 36 09 bf dd 32 c7 bc
       -0.005425644 0.12723017 -0.53599167 -0.024316246
000110 bf c1 e4 bd 82 29 d9 be c1 b1 54 3e 26 25 b1 3d
       -0.11169767 -0.4241448 0.20770933 0.086496636
000120 57 0e db bb 72 e3 63 be 0c 36 3f bd 64 e0 42 3e
       -0.006685059 -0.22254732 -0.046682402 0.1903091
000130 ce 81 02 3e d9 18 ea bc cc 49 92 3b be d4 0c be
       0.12744829 -0.028576301 0.0044643637 -0.1375303
000140 68 c7 d7 3c 07 7b 63 be 4c 5d 02 3d 0f 28 1e be
       0.026340201 -0.222149 0.031827256 -0.15444969
000150 69 9d 80 3c 66 3c 89 be 5e 6a 6e 3c d3 5f 99 3d
       0.015700059 -0.26803893 0.014551727 0.0748898
000160 10 b3 fd bc 2f d5 8d be 2c 9e cb bd c0 b2 d8 3d
       -0.030969173 -0.2770171 -0.09942278 0.10580969
000170 4c 72 11 3e 26 09 c9 bd ac c4 c4 be c3 39 11 be
       0.14203757 -0.09816198 -0.384313 -0.1418219
000180 7b a2 22 3f 77 4e 67 3e 2e 3d 45 ba a1 46 65 be
       0.63529176 0.22588526 -0.000752407 -0.22390224
000190 22 ab a0 be 3f e6 e1 3d 67 04 07 be 37 03 0a 3b
       -0.31380564 0.11030244 -0.13185273 0.0021059045
0001a0 ef 48 e9 3b 9a 36 83 3e 92 67 82 bb 6f 58 fa bd
       0.00711929 0.25627595 -0.0039796317 -0.122238986
0001b0 7f c3 94 bc b4 fb c2 bc a0 f7 27 bc b6 30 02 bd
       -0.018159626 -0.023801662 -0.0102519095 -0.031784736
0001c0 29 f8 9e 3d 2c ad 35 3c 23 7f 0b bb d5 14 39 3d
       0.077621765 0.011088651 -0.0021285496 0.045185883
0001d0 36 20 bb 3c 4e be 85 bd 7a c7 97 be 20 b2 87 3d
       0.022842508 -0.06530438 -0.29644376 0.066257715
0001e0 ac a4 57 bd b1 69 fb bd d6 05 da be 84 e5 4a be
       -0.052647278 -0.122760184 -0.42582577 -0.19814116
0001f0 ff ee 6c 3d a9 4d ff bc be f3 bb 3c 63 ab 82 bd
       0.057845112 -0.031164961 0.022943374 -0.06380346
000200 7d 1e c6 bd 6d a2 5b bc 89 e9 76 be dc ae 8c bd
       -0.09673784 -0.013405425 -0.24112524 -0.06869289
000210 b4 32 87 3c f7 ba bb be ab 39 5d be e3 cb 68 be
       0.01650367 -0.3666608 -0.2160403 -0.22734027
000220 e6 ee 48 be cf f0 5a bd 07 24 00 3e 1a c0 97 be
       -0.19622383 -0.05345231 0.12513743 -0.2963875
000230 81 91 ac be 61 04 5c bd de 75 b2 3c 97 10 15 3c
       -0.3370476 -0.053715114 0.02178472 0.009098194
000240 be 91 f4 bd 7f 69 89 3e 21 0d 37 be 95 d7 96 be
       -0.119418606 0.268383 -0.17876102 -0.2946135
000250 9a bf 9a bc ec 31 c1 be a2 12 00 be 73 5b 30 bd
       -0.01889019 -0.377334 -0.12507108 -0.043055963
000260 09 64 c2 be bf 40 c8 bb b0 34 ac be 59 40 98 3d
       -0.37966946 -0.006111234 -0.33633947 0.07434148
000270 53 bf 02 3d 98 b8 5d be 8d 6c 66 bd b3 d5 69 bd
       0.031920742 -0.21652448 -0.056255866 -0.057088565
000280 12 59 3e bc 6e 76 a5 bd d1 d2 b9 bd 5d af 07 3e
       -0.011617916 -0.08079229 -0.09073413 0.1325049
000290 8d 4c ee 3c ad c5 ca bd 00 c7 8d 3e 1a fb 07 be
       0.029089237 -0.09900985 0.27690887 -0.13279381
0002a0 e1 43 0b 3e 17 4a 48 be 0b f8 a4 bd fb d9 90 bd
       0.13600112 -0.19559513 -0.08055123 -0.070728265
0002b0 82 bb 25 3b 74 89 1c bf 38 0f 11 3d 9e 50 ef be
       0.0025288765 -0.61147237 0.035414904 -0.46741194
0002c0 f1 f9 ba be ed 67 16 bd 3b 1c a9 bc f8 02 a4 3d
       -0.36518815 -0.036720205 -0.020643344 0.08008379
0002d0 ea 77 93 bd d9 aa 96 3e 19 3e 0c 3e fc 7b b2 3d
       -0.07200606 0.2942722 0.13695563 0.087150544
0002e0 fb 5d 0d be 9e 0e 1b be 2a 1f fb bd 6d e4 12 bf
       -0.13805382 -0.15142295 -0.122618034 -0.573798
0002f0 fd df 9f be 51 49 93 bd 09 e9 30 bf f4 b7 e0 3d
       -0.31225577 -0.07191718 -0.69105583 0.10972586
000300 23 35 2c 3b cb 07 df bc fd cc 87 bd 67 6f 01 be
       0.002627679 -0.027225396 -0.06630895 -0.12640153
000310 d8 97 15 3e ba bd 75 3d f0 07 1c bf 61 c6 d8 be
       0.14608705 0.05999539 -0.6094961 -0.4233885
000320 bb e4 f0 be 31 cf 81 be 2a 67 43 be fa 40 61 be
       -0.47049507 -0.25353387 -0.19082323 -0.21997443
000330 fa 47 d2 3d 54 18 2a 3e f5 17 fa 3d 55 8c 10 be
       0.10267635 0.16610843 0.12211601 -0.14116032
000340 69 02 b2 bc b7 2a 42 bc 0d da 8c bc 74 0d 05 3e
       -0.021729665 -0.011851004 -0.017193818 0.12993413
000350 37 22 3e 3d fb 67 db 3c f0 4a b9 3e 7d 7f 22 bd
       0.04641935 0.02678298 0.36189985 -0.039672364
000360 e5 24 c7 3d 1f ae fe 3b 89 e4 d3 bd 63 da ca bd
       0.09723834 0.0077722217 -0.10346324 -0.09904935
000370 2f bf 1c 3d a3 ad b3 3a fd b5 88 3c 78 a4 d0 bc
       0.038268264 0.0013708364 0.016688341 -0.02546905
000380 50 be d8 3b 09 d0 86 3d 3a fb aa be 23 a3 25 3d
       0.006614484 0.06582648 -0.33394796 0.040438782
000390 6e f6 0f 3e 65 e8 a4 be b6 4b 5c 3e 38 f2 33 3e
       0.14058849 -0.32208553 0.21513256 0.17572868
0003a0 7f fc 90 be 02 92 7a be 3e 29 c0 bd 71 99 87 bc
       -0.2831764 -0.2446976 -0.09382866 -0.016552659
0003b0 b1 f4 81 3e 2f 67 2c be f3 03 d4 bd 15 96 32 3a
       0.25381997 -0.16836236 -0.10352316 0.0006812525
0003c0 6c d5 bc bd 42 67 fd 3e ef a6 19 be 26 84 e1 3d
       -0.092203945 0.49492842 -0.15005086 0.110115334
0003d0 71 f0 e6 3d e0 89 f1 bb e8 1c 45 be 86 30 0d be
       0.11276329 -0.0073711723 -0.19249308 -0.13788041
0003e0 87 f4 f2 be f1 8f 98 be 78 b1 f2 be 62 de 86 3d
       -0.47452185 -0.2979732 -0.47401023 0.06585385
0003f0 d7 37 c8 3e e2 1a a0 3e 0c ea 5a be 6d 50 b7 3d
       0.39105102 0.3127051 -0.21378344 0.08950887

conv_block_2.2.bias f4 [32]
000000 d3 79 22 bc 07 c1 88 3d cb 60 24 3e ea aa 01 be
       -0.0099167405 0.06677442 0.16052549 -0.12662855
000010 7a 6b 8b 3d 94 f5 3a be 0b 84 75 39 1a 77 94 bc
       0.06807609 -0.18257743 0.0002341421 -0.018123198
000020 a9 a1 4c 3d d2 81 12 be f9 a5 fe bc 4b f1 7c bd
       0.04995886 -0.14307335 -0.031085001 -0.061753552
000030 d3 e9 53 3e 1e e1 04 be eb 22 90 3d 72 8e 5b bd
       0.20694666 -0.129765 0.0703791 -0.053602643
000040 2b 91 e5 bd 7d 95 2e 3d 4a 66 73 be 5d 83 cb bd
       -0.11209329 0.042623032 -0.23769489 -0.09937165
000050 2d 2f e9 bb 01 bc d1 bd 7c 9b 80 bd e4 03 d7 be
       -0.0071162195 -0.10240937 -0.06279656 -0.41995156
000060 57 b3 46 3e 24 b5 28 bd 20 d3 06 3d 2f 3f 19 3d
       0.1940435 -0.041188374 0.03291619 0.037413772
000070 5b 2d 81 3d fd 77 04 be 27 2f c4 bd a2 4d 92 be
       0.06307479 -0.12936397 -0.09579306 -0.28574854

classifier.1.weight f4 [10, 1568]
000000 48 75 3e be d8 48 cd bd 72 78 8a bd cf 90 24 3e
       -0.18599427 -0.100236595 -0.06761254 0.16070865
000010 9f 98 6f bd 8b 31 89 3e 44 39 b6 3e f6 92 98 3d
       -0.05849516 0.2679561 0.35590565 0.074499056
000020 b4 d1 78 3e 12 fb 82 3e e8 30 d9 bd 78 60 63 be
       0.24298745 0.25582176 -0.10605031 -0.22204769
000030 b2 ec af 3e f8 f3 d0 3d 43 e6 62 be ce ec ca 3e
       0.34360272 0.10202783 -0.2215815 0.39633793
000040 6d 80 36 bc 52 a8 e4 3d 6b 04 0a be 14 29 d8 bd
       -0.0111390175 0.11164917 -0.13478248 -0.1055471
000050 3e ed 94 bc 1b 6b d3 bd cb e6 a1 bd 94 07 de 3d
       -0.018179532 -0.10323163 -0.079053484 0.10841289
000060 8b b4 a3 3e 5c 94 62 be fc 5f a5 bf 94 20 bf 3d
       0.3197368 -0.22126907 -1.2919917 0.09332386
000070 a9 27 17 be 59 f9 48 3e 7b 20 a5 3c 54 75 13 3e
       -0.14761223 0.19626369 0.02015709 0.14400226
000080 bf 9e b1 be 5c 90 9e bd 17 4f 71 bc 95 b1 34 3c
       -0.34691426 -0.07742378 -0.014728329 0.011028667
000090 19 f2 25 3c 04 14 d8 bd ac 30 32 3e 98 2c 01 3e
       0.010128521 -0.10550693 0.1740138 0.12614667
0000a0 3a 5e cc bd 10 b5 2d be 73 71 80 3d 63 9a 30 3e
       -0.0997891 -0.16963601 0.06271639 0.17246394
0000b0 21 fd d2 3d da 9b bd bd fd fe d3 bd 5b 2e 1f be
       0.10302187 -0.09258242 -0.103513695 -0.15545027
0000c0 c1 a7 d3 be 10 e3 25 3e 55 1e c1 bc 51 7c d0 3d
       -0.41338924 0.16199899 -0.023574034 0.101799615
0000d0 25 48 2a be 0a d1 46 bd 0b aa a4 3e b0 20 76 bd
       -0.16629083 -0.0485392 0.32160982 -0.060089767
0000e0 f2 28 b3 bc 77 95 8a 3d 26 97 f7 bc bd db ec bb
       -0.02187011 0.067667894 -0.03022344 -0.0072283433
0000f0 46 80 37 3c 67 51 3a bd 68 a8 0a 3e 9f 88 86 3d
       0.011200016 -0.045487788 0.13540804 0.06569027
000100 ac 4e 4d 3e 2b a3 03 3e 7e 4a 97 3d c4 f5 84 be
       0.20049542 0.12855212 0.07387255 -0.25968754
000110 35 f3 46 3e d5 22 84 bd ce cb 04 bf 1a cc dc bc
       0.19428714 -0.06451956 -0.5187348 -0.026952792
000120 27 b3 08 be 45 6f 3d be 29 4c 47 bc d7 e0 08 3e
       -0.13349591 -0.18499477 -0.012164154 0.1336702
000130 87 c5 e6 3d f6 56 87 3c db 41 d0 3a e4 4e d2 3d
       0.11268144 0.016520958 0.0015888767 0.102689534
000140 cb 5b a5 be 4e 0c b1 3e 63 9a 08 3e 9e ba d5 3d
       -0.32296595 0.345797 0.13340144 0.10435985
000150 e0 9f b9 be 28 33 92 be 70 00 0d bc 4f 5d 35 be
       -0.36254787 -0.28554654 -0.008606061 -0.17711376
000160 fc 79 94 3c 09 8e dd ba 3f 3e 14 3d e4 32 f9 3e
       0.018124573 -0.0016903292 0.036192175 0.4867164
000170 a4 71 30 3e 43 2c 04 3d 31 66 8c 3d 4b 1d a8 be
       0.1723085 0.032268774 0.06855429 -0.3283485
000180 8c 75 3a 3b 3d df 99 be c2 ff 84 3c 84 57 2b 3d
       0.002845141 -0.3005313 0.016235236 0.04183151
000190 62 9c 80 3d 71 57 c5 bd 05 cb 35 be ff 6f f8 bc
       0.06279828 -0.09635819 -0.17753227 -0.030326841
0001a0 4e c7 ea 3d 0d 96 99 bd 82 fd fb bd 21 23 b5 3c
       0.114637956 -0.07499323 -0.12304212 0.022111477
0001b0 81 52 28 3d 50 bf f0 bd dc 6c 58 bd 47 96 63 3a
       0.041094307 -0.1175524 -0.05283819 0.0008681756
0001c0 d5 5c 09 3e ae 20 ba 3c 42 b4 52 3e 3a 6b 48 3e
       0.13414319 0.022720661 0.20576575 0.19572154
0001d0 66 fb 1d 3e 19 9c 6d 3e e0 c3 0c bd 34 5b ce 3d
       0.15427932 0.23204078 -0.03436649 0.10075989
0001e0 67 1b 09 bf aa 93 97 3a a6 17 75 3e d7 35 2b bd
       -0.5355744 0.0011564393 0.23934802 -0.041799393
0001f0 28 15 10 3e e1 3a 9e be fe 93 30 3e 81 cb 88 be
       0.1407057 -0.30904296 0.17243955 -0.2671776
000200 1f 37 bd 3e 0b 9b 69 bd 30 bc 1d be 9e 0a 36 3e
       0.36956117 -0.057032626 -0.15403819 0.17777488
000210 42 e8 29 bf d7 d2 49 3d f9 cd 49 be 23 cf 0f be
       -0.6637002 0.04927334 -0.19707479 -0.1404386
000220 3d 5e 09 be 69 8c c7 3e f8 ce 31 3d 19 d6 bd be
       -0.13414855 0.38974312 0.04341027 -0.37077406
000230 8b 71 13 be a8 7c 29 3e d4 5e b6 bd 2c 6c fd bd
       -0.14398782 0.16551459 -0.08904806 -0.12374148
000240 ad 50 0f be 25 5f 8d bc 9b 77 33 3e d0 fe 92 bd
       -0.13995619 -0.017257283 0.17526095 -0.07177508
000250 a4 85 07 be b4 2a c8 3e 1d 34 a3 be 08 ae 10 3e
       -0.13234574 0.3909508 -0.31875697 0.14128888
000260 18 1d 9c bd 4f bf 83 3e 0c e5 15 bf 6e 5f ab bc
       -0.07622737 0.25731894 -0.5855262 -0.020919528
000270 0e 0f df 3c 5a 64 c9 bc 3e b7 60 3d 29 20 ab 3e
       0.027228858 -0.024583984 0.054862253 0.33422974
000280 5e 50 21 3e c7 19 df be 66 18 f6 3d a2 f0 3e 3e
       0.15753314 -0.43574354 0.120163724 0.18646482
000290 a5 4d b2 be 98 fd 97 3d 9b ba 0f 3d 0b 1e c3 bd
       -0.34824863 0.07421416 0.03509007 -0.095272146
0002a0 29 52 1c bf 58 2f 62 bd 23 57 a3 3d 5a cf d3 be
       -0.61062866 -0.05522093 0.079756044 -0.41369134
0002b0 7a cb 95 3e a5 8d 04 3d 4f db bd be df 2c 0e bf
       0.29256803 0.032361645 -0.37081382 -0.5553722
0002c0 f1 ba bb bc c6 ac 12 bd 6e ad 2e be 49 d8 5a be
       -0.022916289 -0.0358093 -0.17058346 -0.21371569
0002d0 d2 c6 2e be 54 d3 10 be 6e a5 5a bf fd 0f bf 3d
       -0.17068031 -0.14143115 -0.85408676 0.093292214
0002e0 f4 5e 53 bd 26 05 38 be cb c0 29 3d fc a8 d6 be
       -0.051604226 -0.17970714 0.041443627 -0.419258
0002f0 99 e2 e7 bd 60 8b 1f be 84 24 87 be 9a b8 be 3c
       -0.11322517 -0.15580511 -0.26395047 0.023281384
000300 13 39 c3 be 0e 58 06 3c 8b ff d9 bd d6 5d f0 3d
       -0.38129482 0.008199705 -0.10644444 0.11736648
000310 a4 19 8c 3d 47 d9 8a 3d 56 02 73 bd 99 a1 15 be
       0.06840828 0.067797236 -0.0593284 -0.14612426
000320 79 e6 0d 3c 13 8b 7d 3d 4c 8d 8c be 34 f8 ba 3e
       0.008660906 0.06190021 -0.2745155 0.3651749
000330 6a ed 4b 3d 6d 99 50 3e 64 05 13 be 83 ad 94 bd
       0.049786963 0.20371027 -0.14357525 -0.07259657
000340 9e 1b cb 3d c4 7e 60 bd d7 d7 b8 3c ab cd c5 3e
       0.09917377 -0.054808393 0.022563858 0.38633475
000350 23 45 97 3e c5 e1 96 bd 8a 79 8d 3e d9 5e fb 3d
       0.29544935 -0.07367281 0.2763179 0.1227395
000360 e6 d3 21 bf d4 ca 9a 3d c5 70 9c be 5d 08 9f be
       -0.63213956 0.07558218 -0.30554786 -0.31061068
000370 40 cf 3f bd a8 71 4f 3e 66 7d 9e 3e b0 c6 dc be
       -0.04682851 0.202582 0.30955046 -0.43120337
000380 1c f5 83 3e b1 1f a5 be 53 76 92 bb ed 27 ee bc
       0.2577294 -0.3225074 -0.0044696718 -0.029071772
000390 16 1c 9e bc 5d fd 26 be 08 5f fe be 15 ad 14 be
       -0.019300502 -0.16307588 -0.49681878 -0.1451915
0003a0 e8 1c d1 be 3a f0 09 be d9 69 a3 be 08 cf 48 3c
       -0.40842366 -0.13470545 -0.31916693 0.012256391
0003b0 e3 bf 82 be 65 ca 1e bf a5 33 83 3e bc 36 e7 bd
       -0.25537023 -0.6202758 0.2562534 -0.11289737
0003c0 d0 72 48 3d 41 b6 89 be 02 95 65 bd 18 f5 4a 3e
       0.04893762 -0.2689686 -0.056050308 0.19820058
0003d0 f2 be 66 be c1 e4 5c 3d e3 d5 ea bc fe de c7 3b
       -0.22533777 0.053929094 -0.028666442 0.006099581
0003e0 1a e7 5a bd e1 54 fa 3d b4 78 1b bd cf cc b2 3d
       -0.053443052 0.122232206 -0.03795691 0.087304704
0003f0 3c 8a 80 bd 1b 9f 8d 3c e2 48 ec 3b 48 c0 78 3d
       -0.06276366 0.017287781 0.0072108367 0.06073025

classifier.1.bias f4 [10]
000000 93 75 89 3e 3b 7c 20 bd 02 c7 ad 3e ab b7 af 3e
       0.26847515 -0.039180975 0.33940893 0.34319815
000010 86 2e 5b 3e d1 74 91 be 66 4b 89 3e 06 6b d6 3e
       0.21404466 -0.28409436 0.26815337 0.41878527
000020 2a ba 0e 3e a7 7d cf 3c
       0.13938203 0.02532847
