models/mnist_model.pth (torch, 179781 bytes, 10 tensors)

conv_block_1.0.weight f4 [32, 1, 3, 3]
0	0xbe88a7cf	-0.26690528
1	0xbe805bdf	-0.25070092
2	0x3e4274bc	0.18989843
3	0xbe3032ca	-0.17206874
4	0x3e870c16	0.26376408
5	0xbce5bc05	-0.028043756
6	0x3eb5f6ac	0.35539758
7	0xbe9b0d56	-0.30283612
8	0xbef78760	-0.4834547
9	0xbda493fa	-0.08036037
10	0x3e9c0409	0.3047183
11	0x3e700dd5	0.23442777
12	0x3ee3f76b	0.44524702
13	0xbeb55954	-0.35419714
14	0xbdfabc08	-0.12242895
15	0xbeace28f	-0.337666
16	0xbf0857ec	-0.5325916
17	0x3e557b3e	0.20847794
18	0xbdea0917	-0.11427515
19	0x3ee1c553	0.4409586
20	0xbee2dc79	-0.44308832
21	0xbec31ce9	-0.38107994
22	0x3e4c6e6c	0.19963998
23	0xbe83d230	-0.25746298
24	0x3dd8f213	0.10593047
25	0xbe81df1f	-0.2536554
26	0x3e73eee6	0.23821601
27	0xbf153847	-0.58289
28	0xbe8d997f	-0.2765617
29	0x3d0a095c	0.033700332
30	0x3dd382d0	0.10327685
31	0xbd5724ea	-0.05252544
32	0x3e71ce7f	0.23613928
33	0x3e9fb2fe	0.31191248
34	0xbe84beeb	-0.2592691
35	0xbe9759e9	-0.29560784
36	0x3e72043c	0.23634428
37	0xbeda2f23	-0.42614087
38	0xbe0b4c9f	-0.13603447
39	0xbe886617	-0.26640388
40	0xbf8b737f	-1.0894622
41	0x3e3b8b85	0.18314941
42	0xbe4147a1	-0.1887498
43	0xbf48d0bc	-0.78443503
44	0x3db51fde	0.08843969
45	0xbd759e0b	-0.059965175
46	0xbeb8093b	-0.35944542
47	0xbe3ef957	-0.18649803
48	0xbea0e51c	-0.31424797
49	0xbe8d6ac3	-0.27620515
50	0x3ec62b84	0.38705075
51	0x3e41fb75	0.1894358
52	0x3e3e95a7	0.18611775
53	0xbe83a64a	-0.25712806
54	0xbe602dc6	-0.21892461
55	0xbde33ac6	-0.110951945
56	0x3d557fab	0.052123707
57	0xbe962c5a	-0.29330713
58	0xbe131243	-0.14362435
59	0xbe4c5876	-0.1995562
60	0x3a722800	0.0009237528
61	0xbdfe05c0	-0.124034405
62	0xbcbd3940	-0.023098588
63	0xbe409d3f	-0.18809985
64	0xbec1408c	-0.37744558
65	0xbe7171fa	-0.23578635
66	0x3bde8f3a	0.0067919763
67	0xbe73b5d1	-0.23799826
68	0x3e9b6d74	0.30356944
69	0x3dfd8845	0.12379507
70	0x3eb4de4f	0.35325858
71	0x3dfcc399	0.12341995
72	0xbe9104bc	-0.28323925
73	0x3d8f4748	0.06996018
74	0x3ce2b11c	0.027672343
75	0xbe683801	-0.22677614
76	0xbf228c25	-0.63495094
77	0xbf07a075	-0.52979213
78	0x3d963988	0.07335192
79	0xbb178824	-0.0023121918
80	0x3e637f85	0.22216614
81	0xbeb7fc10	-0.35934496
82	0x3e8af64b	0.27141032
83	0xbeb5726b	-0.35438856
84	0xbe214a33	-0.15750961
85	0x3da78a92	0.08180727
86	0x3e274c03	0.1633759
87	0x3de88553	0.113535546
88	0x3e06cefa	0.13164893
89	0xbeaed0d7	-0.34143707
90	0xbd19542a	-0.03743378
91	0xbea2e0db	-0.31812176
92	0xbcb7d62d	-0.022440994
93	0xbea47554	-0.32120764
94	0x3eab7063	0.33484182
95	0xbe9bb50c	-0.30411565
96	0x3d8431a4	0.06454781
97	0x3d5cb920	0.053887486
98	0x3d783cd1	0.060604874
99	0xbecfbd6d	-0.40574208
100	0x3e154517	0.14577137
101	0xbd56091d	-0.052254785
102	0xbc8c193a	-0.017101873
103	0xbebf998d	-0.37421837
104	0x3e2307db	0.15920965
105	0xbeecc572	-0.4624439
106	0xbe8d135e	-0.27553838
107	0x3e7db705	0.24776848
108	0x3d0ea7a8	0.03482786
109	0xbe28634e	-0.16444132
110	0xbecb2409	-0.3967593
111	0x3cd28ca5	0.02570183
112	0x3ef321f4	0.47486842
113	0x3bd76a95	0.006573985
114	0xbf090555	-0.5352376
115	0xbca07cef	-0.019590823
116	0x3cdfdb29	0.027326183
117	0x3e00bd91	0.12572314
118	0x3e96f475	0.2948338
119	0xbee605a1	-0.4492617
120	0x38063643	3.1998625e-05
121	0x3dda7b15	0.10668007
122	0xbcabf769	-0.020991998
123	0xbeb0b772	-0.34514958
124	0x3de4fef0	0.11181438
125	0x3e47a803	0.19497685
126	0x3e93a17d	0.28834143
127	0xbdb77ea0	-0.08959699
128	0xbe7fe816	-0.24990878
129	0x3e37e07e	0.1795673
130	0xbe2b50b0	-0.16729999
131	0xbe576809	-0.2103578
132	0x3e8c2d06	0.273781
133	0x3e8b6514	0.27225554
134	0x3d0b3b48	0.033992082
135	0xbe21ba0e	-0.1579363
136	0xbd0408d7	-0.032234993
137	0x3d82705f	0.06369089
138	0x3cda6e4a	0.026663918
139	0x3e1e5d16	0.15465197
140	0xbedc1f33	-0.42992553
141	0xbef085d6	-0.4697711
142	0x3e81cbb1	0.25350717
143	0x3cb9075f	0.022586523
144	0xbd922715	-0.071363606
145	0xbe3c269e	-0.18374106
146	0xbf195b21	-0.59904677
147	0xbecd2b7c	-0.40072238
148	0xbe60aa65	-0.2194
149	0x3d2198c9	0.039452348
150	0x3e70b257	0.23505531
151	0x3df5db0d	0.12004671
152	0xbedc417a	-0.43018705
153	0xbe72b5aa	-0.23702112
154	0xbd766856	-0.060158096
155	0x3e570e76	0.2100161
156	0x3d394440	0.045231104
157	0xbd476124	-0.048676625
158	0x3e134286	0.14380845
159	0xbe8ed62d	-0.27897778
160	0xbe5d7554	-0.21626788
161	0x3e51f8ce	0.20505068
162	0xbea7b019	-0.3275154
163	0xbe34818a	-0.1762754
164	0xbebceb9f	-0.36898515
165	0x3e5c5f0a	0.2152063
166	0x3e9e447f	0.30911633
167	0x3ea2e43f	0.31814763
168	0xbe775d5a	-0.24156705
169	0xbf11565f	-0.56772417
170	0xbdcb75ba	-0.09934564
171	0x3ea49d6d	0.32151356
172	0x3e070943	0.13187127
173	0x3eb20f6d	0.34777394
174	0x3e615f93	0.22009115
175	0x3c2aad26	0.010417258
176	0x3ddd00e8	0.107911885
177	0xbe80ee96	-0.25182027
178	0xbee1af07	-0.44078848
179	0xbec02b9b	-0.37533268
180	0x3e0bba98	0.13645399
181	0xbe279570	-0.163656
182	0xbd896370	-0.06708419
183	0xbe44706b	-0.19183509
184	0xbd78cbc0	-0.060741186
185	0xbe703e08	-0.23461163
186	0xbe5f0856	-0.21780524
187	0x3de272ab	0.110570274
188	0xbdcae2d6	-0.09906547
189	0x3ec31da1	0.38108543
190	0x3ccca62e	0.024981584
191	0xbed07495	-0.40713945
192	0x3e28c72f	0.16482233
193	0xbf190187	-0.59767956
194	0xbde039cf	-0.10948526
195	0xbf1a068e	-0.6016625
196	0xbe8e519f	-0.27796647
197	0x3e4495e5	0.19197805
198	0xbedf281e	-0.43585294
199	0xbcde7fde	-0.027160581
200	0x3d956bed	0.07295976
201	0xbf1f84e5	-0.62312156
202	0x3e8922a5	0.26784244
203	0xbeb9ec73	-0.3631321
204	0xbda45db4	-0.08025685
205	0x3e83f69c	0.25774086
206	0xbead96e9	-0.33904198
207	0x3e0559a2	0.13022473
208	0xbde5da87	-0.112233214
209	0xbe8e896d	-0.27839223
210	0x3e318ade	0.1733813
211	0xbee3ac15	-0.44467226
212	0x3e37a0ae	0.17932388
213	0x3e63b513	0.22237043
214	0x3e8141ca	0.25245506
215	0xbda8756b	-0.08225521
216	0xbd956cac	-0.07296118
217	0x3e6d698d	0.23184796
218	0x3ee53770	0.44768858
219	0xbf1048d0	-0.56361103
220	0xbda5be70	-0.08092964
221	0xbc180392	-0.009278195
222	0xbddc20c2	-0.107484356
223	0xbf21f06c	-0.6325748
224	0xbe4d0c43	-0.20024209
225	0xbeba2f8c	-0.363644
226	0xbed8470f	-0.42241713
227	0x3e85c3e8	0.26126027
228	0x3e5cd8b1	0.21567036
229	0xbdd59199	-0.10428161
230	0x3d0f0136	0.034913264
231	0xbe8f9f56	-0.2805125
232	0xbf244af7	-0.6417689
233	0xbed773d7	-0.42080566
234	0x3dfdb806	0.12388615
235	0xbe3b6863	-0.18301539
236	0xbe5b6f73	-0.21429233
237	0xbcd50e2b	-0.026007732
238	0xbde355eb	-0.11100372
239	0xbddcdb5b	-0.10784026
240	0x3c2f7aab	0.010710399
241	0xbd90cd56	-0.07070415
242	0xbdeb0cf6	-0.114770815
243	0xbcd1341c	-0.025537543
244	0xbee9d7a1	-0.45672324
245	0x3e78d2f2	0.24299219
246	0xbebacfd4	-0.36486685
247	0xbdfd308e	-0.12362777
248	0xbea1c53f	-0.315958
249	0x3d81afca	0.06332357
250	0x3e8c2069	0.27368477
251	0x3d261377	0.040545907
252	0xbe8e51c3	-0.27796754
253	0x3d89ce7b	0.06728836
254	0x3e8bfc9d	0.27341166
255	0x3ccb94db	0.024851253

conv_block_1.0.bias f4 [32]
0	0xbe1e089c	-0.15432972
1	0x3d593031	0.053024475
2	0xbd6e5446	-0.05818584
3	0x3c9c29fc	0.019062988
4	0x3c845468	0.01615353
5	0xbdade497	-0.08490866
6	0xbea93757	-0.33050033
7	0x3d5035c1	0.050832514
8	0x3cea154d	0.02857461
9	0xbe04bd36	-0.12962803
10	0xbeaca9b1	-0.33723214
11	0x3d27bbcb	0.040950578
12	0xbbba13fe	-0.005678653
13	0xbeacdad6	-0.3376071
14	0xbe73b903	-0.23801045
15	0xbdbd7810	-0.09251416
16	0x3db6ec47	0.08931785
17	0xbe1ae995	-0.15128167
18	0x3d0dec4e	0.034649186
19	0xbe9f0318	-0.31057048
20	0xbe9f6228	-0.31129575
21	0x3cdfe2aa	0.027329762
22	0xbd2038de	-0.039116733
23	0xbdbb07a3	-0.09132316
24	0x3ce0bf2e	0.027434912
25	0xbbe8a2d6	-0.0070994897
26	0xbe7ba016	-0.24572787
27	0xbe615745	-0.22005947
28	0xbe3a81fa	-0.18213645
29	0x3e0a470d	0.13503666
30	0x3e0681cc	0.13135451
31	0xbea5b08c	-0.32361257

conv_block_1.2.weight f4 [32, 32, 3, 3]
0	0x3d41b3f9	0.047290776
1	0xbd15669d	-0.036474813
2	0x3cb4c355	0.022065798
3	0x3d5b30eb	0.05351345
4	0xbb6a7156	-0.003577312
5	0x3daed281	0.08536244
6	0xbd3b519f	-0.045732137
7	0x3c1ca242	0.00956017
8	0x3d069491	0.032856528
9	0xbc0fee35	-0.00878482
10	0xbd1320b7	-0.03591987
11	0xbd61f1b7	-0.055162158
12	0x3d10c7be	0.03534674
13	0xbbe5b880	-0.0070105195
14	0xbc575220	-0.013142139
15	0xbd26025a	-0.040529586
16	0xbd543c81	-0.051815514
17	0xbc6b5365	-0.0143631445
18	0x3bd5e1d6	0.006527166
19	0xbd227f90	-0.039672434
20	0xbcbb06ae	-0.022830334
21	0x3cdb45ea	0.026766736
22	0x3a3a5381	0.000710778
23	0xbb7231cc	-0.003695595
24	0xbcc12893	-0.023578918
25	0xbd5d8443	-0.054081213
26	0xbd6e0b44	-0.058116212
27	0xbd017ff3	-0.031616163
28	0xbd5b839d	-0.053592313
29	0xbc0dbca3	-0.0086509315
30	0xbc9369a3	-0.017994707
31	0xbd2dbc1b	-0.04241572
32	0x3d00de7f	0.03146219
33	0x3c5b3310	0.0133788735
34	0x3d2ca5dc	0.042150363
35	0xbcf1f414	-0.02953533
36	0xbcfebe01	-0.03109646
37	0xbb7fb815	-0.0039019634
38	0xbd85985c	-0.06523201
39	0xbd34fed1	-0.044188324
40	0xbd05f534	-0.032704547
41	0xbd4bc61d	-0.049749482
42	0xbd50f418	-0.051014036
43	0x3cd69458	0.026193783
44	0x3d32df8c	0.043670222
45	0x3bcae061	0.006191299
46	0xbd078c11	-0.033092562
47	0xbda45125	-0.080232896
48	0xbcdeeb96	-0.027211946
49	0xbbe21518	-0.006899487
50	0x3ad6bb38	0.00163827
51	0x3a3c95bb	0.00071939424
52	0xbcacf752	-0.021114025
53	0x3cfc5888	0.030803934
54	0xbd4037e4	-0.0469283
55	0x3d188b16	0.037242018
56	0xbcbb45db	-0.022860458
57	0x3a6c6c19	0.00090187934
58	0xbc3ec91a	-0.011644626
59	0x3bea18d5	0.0071440735
60	0xbc91e06e	-0.017807212
61	0x3d2f7fac	0.042846367
62	0xbac8c9f3	-0.0015318975
63	0x3c9b3af2	0.018949006
64	0x3c99b14d	0.018761301
65	0xbd818c33	-0.06325569
66	0xbd42e295	-0.047579367
67	0x3c77cc77	0.015124432
68	0x3c6ba31a	0.014382148
69	0xbd3cc7dd	-0.046089042
70	0xbb96e6a3	-0.0046051308
71	0xbd7f1e0c	-0.062284514
72	0xbd460cd7	-0.04835209
73	0xbc57cee4	-0.013171885
74	0xbc333a3f	-0.01093918
75	0x3bcd2bbf	0.0062613185
76	0xbd20d68d	-0.03926711
77	0x3ce6ee22	0.028189722
78	0x3ada9df0	0.0016679149
79	0xbd06fe83	-0.032957565
80	0xbbd442a6	-0.0064776717
81	0x3bd95c19	0.0066332933
82	0x3bc5776b	0.0060261986
83	0xbd191928	-0.037377506
84	0x3ca6668f	0.020312576
85	0xbcda8c76	-0.026678305
86	0xbd4e6872	-0.050392576
87	0xbd1acc07	-0.037792232
88	0x3d7307cc	0.059333608
89	0x3d5d30be	0.054001562
90	0x3d28ca87	0.04120877
91	0x3cb38fcf	0.02191916
92	0x3cc79851	0.024364622
93	0xbc32c426	-0.010911023
94	0xbcfc3a4b	-0.030789515
95	0x3cf9ec96	0.03050832
96	0xbccc6e34	-0.024954893
97	0xbcec6caf	-0.028860418
98	0xbcb59f41	-0.022170665
99	0x3c13e098	0.009025715
100	0x3c294730	0.010331914
101	0xbd3230ed	-0.04350369
102	0xbd1f9ef6	-0.038969956
103	0xbc5d94bc	-0.013524231
104	0xbd6350d8	-0.05549702
105	0xbd439dbb	-0.047757845
106	0x3ce73897	0.028225226
107	0xbc662fde	-0.014049498
108	0x3d6f59a1	0.058435086
109	0x3d0a9c28	0.03384033
110	0xbbe13957	-0.0068732905
111	0x3caa5292	0.020791326
112	0xbc1fbd2b	-0.009749691
113	0xbcb8d7ed	-0.022563899
114	0xbb8cc7f1	-0.004296296
115	0xbc626690	-0.013818398
116	0x3cb441bd	0.022004003
117	0x3d31a0d2	0.04336626
118	0xbc8e7a9a	-0.017392445
119	0xbd29e967	-0.041482355
120	0xbcd131d3	-0.025536453
121	0xbd253fb0	-0.04034394
122	0xbbc9dbc1	-0.00616023
123	0x3d26fb12	0.040766783
124	0x3d457856	0.048210464
125	0x3c9f3666	0.019435119
126	0xbd7271c4	-0.059190527
127	0xbd3e3328	-0.046435505
128	0xbd1e103c	-0.0385897
129	0xbc9a8e38	-0.018866643
130	0xbb2b4fd1	-0.0026140104
131	0xbd8fd22d	-0.0702251
132	0x3c5234c8	0.012829967
133	0xbd3edc4d	-0.046596814
134	0xbcf170dd	-0.029472763
135	0xbd84b635	-0.06480066
136	0x3d380a80	0.04493189
137	0xbd7befb7	-0.061507907
138	0x3d2fa63e	0.04288315
139	0xbbc6fb85	-0.006072464
140	0xbc99daf5	-0.018781165
141	0x3d29fc3b	0.04150031
142	0xbac8d7de	-0.0015323122
143	0x3d099f14	0.033598974
144	0x3d2fa5f8	0.04288289
145	0xbd9d00bf	-0.07666158
146	0xbba37e1d	-0.004989399
147	0x3c2ef24a	0.010677883
148	0xbbf4ae25	-0.0074670487
149	0xbc9e0991	-0.019291671
150	0x3c395d79	0.0113137895
151	0xbcdf6711	-0.027270826
152	0xbbd662c7	-0.006542537
153	0x3d42791b	0.047478776
154	0x3c8e2a6b	0.01735421
155	0xbcf300ea	-0.029663522
156	0xbd856284	-0.06512931
157	0xbcedd2ca	-0.029031176
158	0xbd88e852	-0.066849366
159	0x3d38c14a	0.04510621
160	0xbd193795	-0.037406523
161	0xbc02a21b	-0.007973219
162	0xbc8d5749	-0.017253535
163	0xbcb8d340	-0.02256167
164	0x3cb96785	0.02263237
165	0x3ab63b0f	0.0013903099
166	0xbb0296a3	-0.0019926212
167	0x3c3ff1a0	0.011715323
168	0x3d415412	0.047199316
169	0xbcc11a27	-0.02357204
170	0xbcbfc173	-0.023407673
171	0x3d163458	0.036671013
172	0xbc923cf2	-0.017851327
173	0x3c52a071	0.012855635
174	0xbccb1064	-0.02478809
175	0xbd86c8b5	-0.065812506
176	0xbbbe2c02	-0.005803586
177	0xbc294656	-0.010331711
178	0xbbb59ca3	-0.005542354
179	0x3d6dd7f8	0.058067292
180	0x3d24c8a8	0.040230423
181	0x3d64cdcb	0.055860322
182	0x3b4eb109	0.0031538627
183	0xbd4f9ec2	-0.050688513
184	0xbd2951eb	-0.04133789
185	0xbd15ed0b	-0.036603015
186	0xbd54b284	-0.05192806
187	0xbcf1f619	-0.029536294
188	0xbd5e2ffb	-0.054244976
189	0xbd5dc9c8	-0.05414751
190	0xbd735daa	-0.059415497
191	0xbdbc7279	-0.092015214
192	0xbd18db49	-0.0373185
193	0xbc2ae406	-0.010430342
194	0x3ba4c1d6	0.00502799
195	0xbd0c8786	-0.034308933
196	0xbceaf60e	-0.028681781
197	0x3cc2e087	0.023788704
198	0xbd29ad7e	-0.04142522
199	0xbd3ae6c9	-0.04563025
200	0x3c96b990	0.01839903
201	0xbd7fd549	-0.062459264
202	0xbbf6c617	-0.0075309384
203	0x3d10e83c	0.035377726
204	0x3b8baf2b	0.004262825
205	0x3c67613a	0.014122302
206	0xbd13e8c4	-0.036110654
207	0xbc185f60	-0.009300083
208	0xbcbe7854	-0.023250736
209	0xbbf4fd92	-0.007476517
210	0x3ca9a9fd	0.02071094
211	0x3d0a3ae2	0.03374756
212	0xbd8773f0	-0.0661391
213	0xba050d94	-0.00050755707
214	0xbcf6f211	-0.030144723
215	0xbd3eb234	-0.046556666
216	0xbbe63251	-0.007025041
217	0xbd4d2bbb	-0.050090533
218	0x3cd0c6c1	0.025485398
219	0x3bd26a7e	0.0064213863
220	0xbd29da74	-0.0414681
221	0x3d1a12ef	0.037615713
222	0xbd646df9	-0.05576894
223	0xbcbab6e4	-0.022792287
224	0xbc3c5a62	-0.011496158
225	0xbd0c861f	-0.034307595
226	0xbd82b626	-0.06382398
227	0xbd64d7d4	-0.055869892
228	0x3d26bac4	0.040705457
229	0x3d137865	0.03600349
230	0x3cd0f782	0.025508646
231	0xbcdeaef8	-0.027183041
232	0xbcb325bb	-0.021868577
233	0x3d440f8f	0.0478664
234	0x3caabef1	0.020843001
235	0x3acd3205	0.0015655166
236	0x3c02a791	0.007974521
237	0xbd41fac3	-0.047358286
238	0xbca12c2f	-0.019674389
239	0x3d68562f	0.056722816
240	0xbc6e1b95	-0.014532943
241	0xbb41b895	-0.0029559482
242	0xbd486871	-0.048927728
243	0xbd7bde4c	-0.061491296
244	0xbc9bb58a	-0.019007463
245	0xbcc7769b	-0.024348548
246	0xbc445491	-0.011983053
247	0x3cbfe27d	0.023423428
248	0xbd641ec5	-0.055693407
249	0x3c4a153b	0.012334163
250	0xbd04ebb9	-0.032451365
251	0xbcdf86db	-0.027285984
252	0x3a3c29d3	0.0007177863
253	0x3cd5566e	0.02604219
254	0xbcfb9bb1	-0.030713888
255	0xbd0df560	-0.034657836

conv_block_1.2.bias f4 [32]
0	0xbd844f17	-0.06460398
1	0x3e70902b	0.23492496
2	0x3e0b51ce	0.13605425
3	0xbd97a46a	-0.07404406
4	0x3dca52c8	0.098790705
5	0x3cb583d8	0.022157595
6	0x3d786257	0.06064066
7	0x3de2e016	0.11077897
8	0x3c28b0c7	0.010296053
9	0xbd613246	-0.054979585
10	0x3acdc420	0.0015698709
11	0xba159702	-0.0005706401
12	0xbc9f95c8	-0.019480601
13	0x3cd86d0d	0.026419187
14	0x3e4c5435	0.19953997
15	0x3dc4f7a2	0.09617545
16	0x3d951b84	0.07280639
17	0x3cfef7a9	0.031123953
18	0x3e06a535	0.13148959
19	0x3e4eab18	0.20182455
20	0x3dac97f0	0.08427417
21	0x3d85c6a6	0.0653203
22	0x3d7a9d99	0.061185453
23	0xbd64a4ed	-0.055821348
24	0x3d557b51	0.052119557
25	0xbd181f1b	-0.03713904
26	0xbd24203c	-0.040069804
27	0xbd17242e	-0.036899738
28	0xbd9c8d40	-0.07644129
29	0xbd91f036	-0.07125895
30	0xbcabef67	-0.02098818
31	0x3d16c3ad	0.036807705

conv_block_2.0.weight f4 [32, 32, 3, 3]
0	0x3d707a74	0.05871053
1	0xbd2764e9	-0.04086772
2	0xbc995dcb	-0.018721482
3	0x3c2e1fdd	0.010627714
4	0x3cf880e5	0.0303349
5	0x3cdcb081	0.026939632
6	0x3d1317a1	0.035911206
7	0x3b2e054b	0.0026553448
8	0xbc5fcf26	-0.013660228
9	0xbe130fbd	-0.14361472
10	0xbe80fe19	-0.2519386
11	0xbf011b77	-0.50432533
12	0x3d689d02	0.05679036
13	0x3dfe3f81	0.12414456
14	0xbe007d88	-0.12547886
15	0x3e0b772d	0.1361968
16	0x3b8cd3dc	0.0042977165
17	0x3e1f66cd	0.15566559
18	0xbe75aa6e	-0.23990795
19	0x3e1024f7	0.14076601
20	0xbc578904	-0.013155226
21	0xbd31b475	-0.043384988
22	0x3dafeee9	0.0859049
23	0xbd07d90f	-0.033165988
24	0x3e0d5949	0.13803591
25	0x3e1e5a12	0.15464047
26	0x3e260790	0.16213822
27	0x3db9f9a0	0.09080815
28	0x3c474fb8	0.0121650025
29	0xbe43e270	-0.19129348
30	0x3dfa4924	0.12220982
31	0x3da5e5cc	0.08100471
32	0x3d601e89	0.05471662
33	0x3d57d7f9	0.052696202
34	0xbc8049e3	-0.015660232
35	0xbec38bfd	-0.3819274
36	0x3e30a951	0.17252089
37	0x3e2a4fa0	0.16631937
38	0x3e271439	0.16316308
39	0xbda61485	-0.081093825
40	0xbceee7bf	-0.02916324
41	0x3e03f3e2	0.12886003
42	0x3c839f82	0.01606727
43	0x3d349395	0.044086058
44	0x3e009823	0.12558036
45	0x3e7280bc	0.23681921
46	0x3e85af43	0.26110277
47	0xbe3211d2	-0.1738961
48	0xbb600768	-0.0034184102
49	0x3c87692d	0.016529644
50	0x3c316470	0.010827169
51	0x3e26efb7	0.16302381
52	0x3d82d6a9	0.063885994
53	0x3e87d2ab	0.26527914
54	0xbee98624	-0.45610154
55	0xbdab5dff	-0.08367538
56	0xbe52b7f2	-0.20577982
57	0xbedafaf8	-0.427696
58	0x3d98d709	0.0746289
59	0x3cea3b0c	0.028592609
60	0xbddcbf78	-0.10778707
61	0x3c163526	0.009167945
62	0xbd75f8c4	-0.060051695
63	0x3e18da32	0.14926985
64	0x3e4e4f16	0.20147356
65	0x3d142dea	0.0361766
66	0x3e825af8	0.2546003
67	0x3e2b1675	0.16707785
68	0xbd3912f4	-0.04518409
69	0x3e072357	0.13197075
70	0x3da7f84f	0.08201658
71	0x3e9bb20d	0.3040928
72	0x3e6242d0	0.220958
73	0xbd92aca8	-0.07161838
74	0xbeb3767c	-0.35051334
75	0x3e174ac8	0.1477462
76	0xbd6c64a3	-0.057713162
77	0xbd61f0bd	-0.055161227
78	0x3db91da8	0.090388596
79	0x3d726fee	0.059188776
80	0xbec03947	-0.375437
81	0x3e54bdb3	0.2077549
82	0x3e7d7462	0.24751428
83	0x3cb8df41	0.022567393
84	0xbda8381c	-0.08213827
85	0x3dae47f7	0.0850982
86	0xbeb7fd29	-0.35935333
87	0x3dbd75ec	0.092510074
88	0xbd0599a0	-0.03261721
89	0xbe8f7105	-0.28015915
90	0xbe66a779	-0.22524823
91	0xbeaf6613	-0.34257564
92	0xbf320815	-0.6954358
93	0xbcda842d	-0.026674354
94	0xbee1bb70	-0.44088316
95	0xbf05cedd	-0.52268773
96	0x3bcd4be7	0.006265152
97	0xbd67d44b	-0.056598943
98	0x3e80cefd	0.2515792
99	0x3de6a22a	0.11261399
100	0xbdc3743e	-0.09543656
101	0xbd297898	-0.041374773
102	0x3e5a1bbc	0.21299642
103	0x3bedd5c7	0.0072581503
104	0xbdaec4b0	-0.08533609
105	0x3e6f8ec2	0.23394302
106	0x3d62e0f8	0.05539033
107	0x3eb517a5	0.35369602
108	0x3e375483	0.17903332
109	0x3e31b7bc	0.17355245
110	0x3e337a97	0.17527233
111	0xbe867d7a	-0.26267606
112	0x3cf1d7d8	0.029521868
113	0xbd476e0f	-0.048688944
114	0x3e54d64b	0.20784871
115	0xbdddee93	-0.1083652
116	0xba1f3111	-0.000607268
117	0x3d3f3207	0.04667857
118	0x3d5649c6	0.05231645
119	0x3e231e90	0.15929627
120	0xbe837995	-0.25678697
121	0xbdcf1b59	-0.10112638
122	0x3e59ca37	0.21268545
123	0xbe979d6f	-0.296123
124	0x3d7bbbac	0.061458275
125	0x3dab55a4	0.08365944
126	0xbf27988f	-0.6546716
127	0x3df74a21	0.12074686
128	0x3e0a3979	0.13498487
129	0xbedd7621	-0.43254188
130	0x3e5e99f2	0.21738413
131	0x3e09541f	0.13410996
132	0xbed92569	-0.42411354
133	0x3e187cc4	0.14891344
134	0xba4e54a2	-0.00078708876
135	0xbf144102	-0.57911694
136	0x3d9733d3	0.073829316
137	0xbe241649	-0.16024126
138	0xbeb721b2	-0.35767895
139	0xbd2ce1db	-0.04220758
140	0xbd0438b3	-0.032280635
141	0x3cc4f4f5	0.024042586
142	0x3dcc7671	0.099835284
143	0x3d3fa0b2	0.04678411
144	0xbf1dd157	-0.6164755
145	0x3e024ff7	0.12725817
146	0x3d231f76	0.039824925
147	0xbeba6a18	-0.36409068
148	0xbdc26d55	-0.0949351
149	0x3d8b4797	0.06800764
150	0xbf244cd2	-0.6417972
151	0xbda7e7a8	-0.08198482
152	0x3df7a719	0.12092418
153	0xbede5b79	-0.43429163
154	0xbf1107ad	-0.5665234
155	0xbf11a611	-0.5689402
156	0xbdcde44f	-0.10053312
157	0xbdc11c48	-0.09429222
158	0xbc79fcad	-0.0152579965
159	0x3e8501d0	0.25977945
160	0x3d0a1a15	0.03371628
161	0x3d8c091a	0.068376735
162	0xbe7a399e	-0.24436042
163	0xbd998622	-0.07496287
164	0xbeb1358d	-0.34611169
165	0x3d4e0ebd	0.050307024
166	0xbec84b3d	-0.39119902
167	0xbf1e11d6	-0.61745965
168	0x3e78466a	0.24245611
169	0xbdbca209	-0.09210593
170	0xbe0daa70	-0.13834548
171	0xbe6799ab	-0.22617213
172	0xbd08328c	-0.03325133
173	0xbe5092f7	-0.20368563
174	0xbd9a9344	-0.0754762
175	0x3d506423	0.050876748
176	0xbd6aceee	-0.05732625
177	0xbde8b442	-0.113625064
178	0xbda5885b	-0.08082648
179	0x3c04e3f7	0.008110992
180	0xbe6a5e46	-0.22887525
181	0xbd161de4	-0.0366496
182	0xbe097aa8	-0.13425696
183	0xbe3a59bd	-0.18198295
184	0xbe574d48	-0.21025574
185	0x3c8f1e3b	0.01747047
186	0xbecb2f51	-0.39684537
187	0x3e896c02	0.26840216
188	0x3e7c4eaf	0.2463939
189	0xbe6b3c14	-0.22972137
190	0x3d580bc2	0.052745588
191	0xbe391b2e	-0.18076774
192	0xbdbb8f86	-0.09158234
193	0x3e0e522b	0.13898532
194	0x3e2b443e	0.16725251
195	0x3d80992b	0.062792145
196	0xbc64ae8f	-0.013957634
197	0x3cff5121	0.031166615
198	0xbd465bc1	-0.048427347
199	0xbeaad6de	-0.33367056
200	0xbf253a12	-0.64541733
201	0xbe5749d9	-0.21024264
202	0xbe9f9054	-0.311648
203	0xbeb03a1c	-0.34419334
204	0x3e0a0c3b	0.13481228
205	0x3df6af55	0.12045161
206	0xbc08f1ff	-0.008358478
207	0x3e40d2da	0.18830433
208	0x3e07443a	0.1320962
209	0x3c950c1e	0.018194254
210	0x3e530bda	0.2060999
211	0x3ddc4456	0.107552215
212	0xbe8e4590	-0.27787447
213	0x3daf300b	0.08554085
214	0x3e22d311	0.15900828
215	0x3e70bcbb	0.23509495
216	0xbe749241	-0.23883916
217	0xbe44adbe	-0.19206902
218	0xbe581690	-0.21102357
219	0xbe0763bc	-0.1322164
220	0x3d48913b	0.048966628
221	0xbd824cc4	-0.06362298
222	0x3d6b1b5f	0.05739915
223	0x3de4b906	0.11168103
224	0x3e31e5eb	0.17372863
225	0xbc27a884	-0.010233048
226	0x3e7c5dc6	0.24645147
227	0xbe289d7e	-0.16466329
228	0xbbf55d4d	-0.007487929
229	0xbd3561b7	-0.04428264
230	0xbceb80f1	-0.028748007
231	0x3d458a56	0.04822763
232	0x3d35993d	0.044335593
233	0xbea7543a	-0.32681447
234	0x3cc2b3e8	0.023767427
235	0xbdb6868c	-0.089123815
236	0xbd983874	-0.074326426
237	0xbc3ec261	-0.011643023
238	0x3c4937f5	0.012281408
239	0xbcbd42cd	-0.023103142
240	0xbd9cfb04	-0.07665065
241	0x3ce98a4b	0.028508326
242	0x3bdc4944	0.006722601
243	0xbe0bd9e2	-0.13657334
244	0xbd0a109f	-0.033707257
245	0xbf0ed263	-0.55789775
246	0xbdced4d0	-0.100991845
247	0xbe9fc704	-0.31206524
248	0xbf3e1b64	-0.74260545
249	0xbe9c8275	-0.3056828
250	0xbe312a4b	-0.1730129
251	0xbdf93496	-0.12168233
252	0xbb122ace	-0.0022303346
253	0x3d7dcdf6	0.061963998
254	0xbd89026e	-0.066899166
255	0x3ce35bec	0.027753793

conv_block_2.0.bias f4 [32]
0	0xbe5a1a75	-0.21299155
1	0x3d99c9ed	0.075092174
2	0x3d7831eb	0.06059448
3	0xbe60b5ea	-0.21944395
4	0xbd7ef49a	-0.06224499
5	0x3c119baf	0.0088872155
6	0xbe45b0f5	-0.19305785
7	0xbe053468	-0.13008273
8	0xbd663cbe	-0.056210272
9	0x3da0baba	0.07848115
10	0x3ca2a8d2	0.01985589
11	0xbce0f96e	-0.027462687
12	0xbd988b16	-0.074484035
13	0xbf005ca6	-0.5014137
14	0xb7bf2c63	-2.2789643e-05
15	0xbe18f485	-0.14937027
16	0xbe58b5c7	-0.21163093
17	0xbe95d1e0	-0.29261684
18	0x3d86d7d5	0.065841354
19	0xbd4e6c6e	-0.050396375
20	0xbe9caeea	-0.306022
21	0x3d416376	0.047213994
22	0xbe39e987	-0.1815549
23	0xbd3af209	-0.04564098
24	0x3ddc528f	0.10757934
25	0xbe71ef97	-0.23626553
26	0x3dbe113b	0.0928063
27	0x3c1f9395	0.009739776
28	0x3d3b6ac6	0.045756124
29	0xbec55f98	-0.38549495
30	0xbda753e5	-0.081702985
31	0xbe892927	-0.2678921

conv_block_2.2.weight f4 [32, 32, 3, 3]
0	0xbe3e1c01	-0.1856537
1	0xbea50660	-0.32231426
2	0xbec8f646	-0.39250392
3	0x3e40404a	0.18774524
4	0xbd527b00	-0.051386833
5	0x3c5119b8	0.0127624795
6	0x3e43b6c8	0.19112694
7	0x3e017be0	0.12644911
8	0x3cf0bc00	0.02938652
9	0x3edc3bfc	0.43014514
10	0x3e0058f2	0.1253393
11	0x3e82f813	0.2557989
12	0x3eade5e2	0.3396445
13	0x3da3b4b9	0.079934545
14	0x3e802ecc	0.25035703
15	0xbdf41aeb	-0.11919197
16	0xbd075305	-0.033038158
17	0xbd483d4d	-0.048886586
18	0xbe25bc28	-0.16185057
19	0x3bca5362	0.006174491
20	0x3e5f9b7a	0.21836653
21	0x3cc9c785	0.024631271
22	0x3c32f95f	0.0109237125
23	0xbdca54ee	-0.0987948
24	0xbd369997	-0.04458007
25	0xbe50c536	-0.2038773
26	0xbe9347fa	-0.2876585
27	0x3e0ac21e	0.13550612
28	0x3e129acf	0.14316867
29	0xbd79ed3c	-0.06101726
30	0x3e45bb98	0.19309843
31	0xbdd5c0a6	-0.104371354
32	0xbf093b1e	-0.5360583
33	0xba9ed81d	-0.001211885
34	0xbc4486de	-0.0119950455
35	0x3d14f02b	0.036361855
36	0xbe13f101	-0.14447404
37	0xbf1f2f60	-0.62181664
38	0xbf49ec8f	-0.78876585
39	0xbc79bb75	-0.015242447
40	0xbd1f9e85	-0.038969535
41	0xbe335c30	-0.17515635
42	0xbd251cde	-0.040310733
43	0x3dbfc2b9	0.09363312
44	0xbe0a10ba	-0.13482943
45	0x3d1383c3	0.03601433
46	0xbe0b9470	-0.13630843
47	0xbd82025b	-0.063481055
48	0x3dc4a0ad	0.09600959
49	0xbe7fcd50	-0.24980664
50	0x3da76419	0.08173389
51	0x3e398c50	0.18119931
52	0xbeb495ec	-0.3527063
53	0xbdc3ac1e	-0.09554313
54	0xbf1348b4	-0.5753281
55	0xbe95559e	-0.29166883
56	0x3e06e6ab	0.1317393
57	0xbd76568f	-0.060141142
58	0xbe358aaa	-0.17728677
59	0xbe2d3b62	-0.16917184
60	0x3df03d07	0.1173039
61	0x3d84213d	0.06451652
62	0x3dd38d33	0.10329666
63	0xbccde47c	-0.025133364
64	0x3cb3f248	0.021966115
65	0x3c2ae52a	0.0104306135
66	0x3c6cdcd8	0.01445695
67	0x3d94960f	0.07255184
68	0xbda0f7eb	-0.078597866
69	0xbd5d4f4b	-0.054030698
70	0x3d1da80b	0.038490336
71	0x3bdd5dea	0.00675558
72	0xbf378e50	-0.71701527
73	0xbef2292e	-0.47297043
74	0xbe2eea86	-0.17081651
75	0xbea2355a	-0.3168133
76	0xbe5899aa	-0.21152368
77	0xbed2790f	-0.41107985
78	0xbe073f0c	-0.13207644
79	0x3e87b876	0.2650792
80	0x3ab9584b	0.0014140693
81	0xbe42edf4	-0.19036084
82	0xbeb767c6	-0.3582136
83	0xbe1710cc	-0.14752501
84	0x3e15c461	0.14625694
85	0xbd05584e	-0.032554917
86	0xbe86b3c1	-0.26309016
87	0xbe87252e	-0.26395553
88	0xbe8e7722	-0.27825266
89	0xb9b16ef6	-0.00033842743
90	0xbaf3935b	-0.0018583344
91	0x3e88098e	0.2656979
92	0xbc87b347	-0.016564978
93	0xbd162876	-0.03665968
94	0xbef52e89	-0.47887066
95	0xbe1be3e8	-0.15223658
96	0xbcee55c3	-0.029093629
97	0xbe266f76	-0.16253456
98	0xbda378f2	-0.07982053
99	0x3e08426f	0.13306592
100	0x3dde388e	0.10850631
101	0x3ea997b5	0.33123556
102	0xbdcb01f1	-0.0991248
103	0xbdfcaae6	-0.12337284
104	0xbc74503c	-0.0149117075
105	0x3e1a4db3	0.15068702
106	0xbd167f70	-0.036742628
107	0xbd99459d	-0.07483981
108	0xbdc42040	-0.09576464
109	0xbddf52e8	-0.10904485
110	0xbeaa04ba	-0.3320673
111	0xbc708781	-0.014680744
112	0x3d8d2080	0.068909645
113	0x3e1081ff	0.1411209
114	0xbbcfd74c	-0.006342804
115	0x3d9e4e07	0.07729726
116	0x3e1b42db	0.15162222
117	0xbc2b3ecc	-0.010451984
118	0xbe020166	-0.12695846
119	0xbea8d9ef	-0.3297877
120	0xbdb18d02	-0.08669473
121	0x3e034658	0.12819803
122	0xbdb2f66f	-0.0873841
123	0x3ddb61b4	0.10711995
124	0x3cda7d41	0.026671054
125	0x3d81ee6d	0.06344304
126	0xbd4efe58	-0.05053553
127	0xbcbfe60f	-0.02342513
128	0xbe990b5b	-0.29891476
129	0x3ec0b76b	0.37639937
130	0x3e3256cf	0.17415927
131	0xbd429897	-0.047508802
132	0x3cc97366	0.02459116
133	0xbbec918c	-0.007219499
134	0xbdcf95a1	-0.10135961
135	0xbca45d69	-0.020064073
136	0x3c2b78f7	0.010465852
137	0xbe12f709	-0.14352049
138	0xbe6e16f2	-0.2325094
139	0xbe038288	-0.12842762
140	0xbd77105d	-0.06031834
141	0x3ddf5ecb	0.10906752
142	0xbe044789	-0.12917913
143	0x3d9233aa	0.071387604
144	0xbe8c9228	-0.27455258
145	0xbe1db837	-0.15402304
146	0xbe3b39b7	-0.18283735
147	0xbd6563fe	-0.056003563
148	0x3e256d7d	0.16155048
149	0x3d4df2fe	0.050280564
150	0xbdafe400	-0.085884094
151	0x3ab7167b	0.0013968492
152	0x3d100721	0.03516305
153	0xbd45275c	-0.04813324
154	0x3e1c7e43	0.1528254
155	0x3e6e2885	0.23257644
156	0xbea0a058	-0.31372333
157	0xbf2298ab	-0.635142
158	0xbe80eb01	-0.25179294
159	0xbd782eb4	-0.060591415
160	0xbdb93f32	-0.09045257
161	0xbdca4504	-0.09876445
162	0x3e76beb4	0.24096185
163	0xbd9099f7	-0.070606165
164	0xbd7eb7d1	-0.06218702
165	0xbdbb4b97	-0.09145277
166	0xbeda315f	-0.42615792
167	0x3dc472b3	0.0959219
168	0x3dd8a4eb	0.105783306
169	0xbdc07976	-0.09398167
170	0xbd70e6ed	-0.058813978
171	0xbf069c88	-0.525826
172	0xbeee1383	-0.4649926
173	0xbe2bff14	-0.16796523
174	0xbd8301f0	-0.06396854
175	0xbed01ae2	-0.4064551
176	0xbf03098b	-0.51186436
177	0x3d2bcf2e	0.04194563
178	0xbdc42997	-0.09578245
179	0xbe634eae	-0.22197983
180	0xbdab0b25	-0.08351735
181	0xbcfdf793	-0.031001842
182	0xbe340a69	-0.17582096
183	0xbd12cdf3	-0.03584094
184	0xbe84a06c	-0.25903642
185	0xbe3b6257	-0.18299232
186	0x3e55848e	0.20851347
187	0xbdf5e7a6	-0.12007074
188	0xbe1d7aaa	-0.15378824
189	0x3e230700	0.15920639
190	0xbd97ef30	-0.07418668
191	0x3e638196	0.22217402
192	0xbd29f9ff	-0.04149818
193	0x3dac2674	0.08405772
194	0x3d8ad4bf	0.06778859
195	0xbee5fe99	-0.44920805
196	0xbd0059dd	-0.0313357
197	0x3d7d4e28	0.061842114
198	0xbd8f6e95	-0.07003514
199	0x3e1b40b0	0.15161395
200	0x3e4b9d75	0.19884284
201	0x3cfeb72e	0.031093206
202	0x3e8deb05	0.27718368
203	0xbe4e66a8	-0.20156348
204	0xbdf5333a	-0.11972661
205	0x3d93de7e	0.072201714
206	0x3e9ec73b	0.31011376
207	0xbe21dc27	-0.15806638
208	0xbea628c3	-0.32452974
209	0xbd5d30ef	-0.054001745
210	0x3e068562	0.13136819
211	0xbce9afe4	-0.028526254
212	0xbdf3da7f	-0.11906909
213	0x3e083b8f	0.1330397
214	0x3d36c0c5	0.044617433
215	0x3de3e64a	0.111279085
216	0x3d013ca1	0.03155196
217	0xbcd4ada5	-0.025961706
218	0x3c89764a	0.016780037
219	0x3e098987	0.13431369
220	0x3d61d3a3	0.055133473
221	0xbd511102	-0.05104161
222	0xbddb2f05	-0.10702328
223	0xbef71e05	-0.4826509
224	0xbd784fbf	-0.060622927
225	0xbd38f90b	-0.04515938
226	0xbd8a5705	-0.06754879
227	0xbd20954f	-0.03920489
228	0x3d2aeb8a	0.041728534
229	0xbf0a5ad2	-0.5404483
230	0xbede9072	-0.43469578
231	0x3d881ceb	0.06646141
232	0xbe381c0d	-0.1797945
233	0x3cc8f4d7	0.024530811
234	0xbecb458e	-0.39701504
235	0xbedb9476	-0.42886704
236	0x3d415f35	0.047209937
237	0x3cf02572	0.02931473
238	0xbcbceb9a	-0.023061562
239	0x3d85cb18	0.06532878
240	0xbcb75465	-0.02237911
241	0xbe63d5f2	-0.22249582
242	0xbe485d2a	-0.1956679
243	0xbdb9785b	-0.09056159
244	0xbdb391b7	-0.08768027
245	0xbe360817	-0.17776524
246	0xbd3cf09b	-0.046127897
247	0xbe31319f	-0.17304085
248	0xbe605804	-0.21908575
249	0xbd8af5ba	-0.0678515
250	0x3e4f0a8f	0.20218872
251	0x3e098de2	0.1343303
252	0xbf30d189	-0.69069725
253	0xbe4d68c3	-0.20059495
254	0x3bb5a9f6	0.0055439426
255	0xbda3511f	-0.07974457

conv_block_2.2.bias f4 [32]
0	0x3cc5541a	0.024087954
1	0x3d49d1d7	0.049272384
2	0xbdf04684	-0.117322
3	0x3c007bd6	0.007842025
4	0xbe6cb0c7	-0.2311431
5	0x3d441332	0.04786987
6	0xbd8244aa	-0.06360753
7	0x3d438f4b	0.047744077
8	0x3dabc8a2	0.08387877
9	0x3e2bb509	0.16768278
10	0x3e35c418	0.17750585
11	0xbdf42dc9	-0.11922795
12	0x3d67fed1	0.056639496
13	0x3e18286e	0.14859173
14	0xbd3beff5	-0.045883138
15	0xbde8825c	-0.11352989
16	0xbd93c890	-0.07215989
17	0x3da5c89c	0.08094904
18	0xbd1de82e	-0.038551502
19	0xbd59b5e1	-0.05315197
20	0x3de06a7e	0.10957812
21	0xbe1046a0	-0.14089441
22	0x3d715168	0.058915526
23	0xbd147d8c	-0.036252543
24	0x3d90a977	0.07063573
25	0x3d8e3be4	0.06945017
26	0x3c8e6dcd	0.017386341
27	0x3cab8c16	0.020940822
28	0x3a4073f1	0.00073414954
29	0x3d44ce16	0.0480481
30	0xbc6752cf	-0.014118864
31	0x3d21be6e	0.03948825

classifier.1.weight f4 [10, 1568]
0	0xbdf1a2ad	-0.11798606
1	0xbdb1524d	-0.08658276
2	0xbe003685	-0.12520798
3	0xbde44b04	-0.111471206
4	0x3d55bade	0.052180164
5	0x3e715e2f	0.23571084
6	0x3cc3e128	0.023911074
7	0x3d2d4029	0.042297516
8	0x3d0d3fe6	0.034484766
9	0xbd574c17	-0.0525628
10	0x3de9255b	0.11384078
11	0x3da60d6b	0.08108028
12	0xbdb9e37b	-0.090765916
13	0x3eae7249	0.34071568
14	0x3dd21003	0.1025696
15	0xbeb7bbd6	-0.35885495
16	0xbc644791	-0.013933078
17	0xbe4aa952	-0.19791153
18	0x3dc06db8	0.09395927
19	0xbe2e917c	-0.17047685
20	0x3d8ca3ba	0.06867166
21	0xbe2c268e	-0.16811582
22	0xbe453d76	-0.19261727
23	0xbef08f7c	-0.4698447
24	0xbddea606	-0.1087151
25	0x3e9e209f	0.30884263
26	0xbf001a80	-0.50040436
27	0xbf44c22a	-0.7685877
28	0xbd6f3a7d	-0.05840539
29	0xbed25696	-0.41081685
30	0xbe0dc2bd	-0.13843818
31	0x3dd616df	0.10453581
32	0x3e1baf2e	0.15203544
33	0xbd392cae	-0.045208625
34	0xbe1d23ae	-0.15345642
35	0x3e3c03ad	0.18360777
36	0xbe0131ef	-0.12616704
37	0xbd7e3dd6	-0.06207069
38	0x3e7f1400	0.24909973
39	0x3f1a416d	0.6025608
40	0x3edded97	0.4334533
41	0x3e29a9e1	0.1656871
42	0x3ba30c36	0.004975821
43	0x3d3109a0	0.04322207
44	0x3bfd7906	0.0077353744
45	0xbc888405	-0.016664514
46	0xbc8bde86	-0.01707388
47	0xbe002283	-0.12513165
48	0x3e384c99	0.1799797
49	0xbe657d54	-0.2241109
50	0xbe6ab535	-0.22920687
51	0x3e18bdef	0.14916204
52	0xbe045bac	-0.12925595
53	0xbd87c0d5	-0.06628577
54	0xbe6ac478	-0.2292651
55	0xbded6382	-0.11591245
56	0xbe6cb098	-0.2311424
57	0xbced6c1b	-0.028982213
58	0x3db64a52	0.08900894
59	0xbe6ab2d4	-0.2291978
60	0xbe09c933	-0.13455658
61	0xbe1cc2ba	-0.15308657
62	0xbdc3ab10	-0.09554112
63	0x3d897b45	0.06712965
64	0xbda6556c	-0.08121762
65	0x3e846614	0.2585913
66	0xbc2a5b08	-0.01039768
67	0xbd912d6f	-0.07088744
68	0x3e1f2969	0.1554314
69	0x3e095f9e	0.13415381
70	0x3e47bc70	0.19505477
71	0xbd587239	-0.052843306
72	0xbe4cccae	-0.19999954
73	0xbee0d6fe	-0.43914026
74	0xbe0adc24	-0.1356054
75	0xbd5d7c51	-0.054073635
76	0x3cded5db	0.027201584
77	0xbd291cce	-0.041287236
78	0x3aaa6f3d	0.0013003122
79	0xbf17f653	-0.59360236
80	0xbe1dc9b5	-0.15408976
81	0xbe2c823e	-0.16846558
82	0xbdd1156e	-0.102091655
83	0xbe8a56e1	-0.27019408
84	0x3e96bcad	0.29440823
85	0x3e9bd1da	0.30433542
86	0xbe8ccd15	-0.27500215
87	0xbf480eec	-0.7814777
88	0xbf5503a5	-0.83208686
89	0xbed0bc2d	-0.40768567
90	0xbe80f67d	-0.25188056
91	0x3d226b59	0.039653156
92	0x3e74f683	0.23922162
93	0x3e570a65	0.21000059
94	0xbdba3d18	-0.09093684
95	0xbf0c7b6e	-0.5487584
96	0xbf30117c	-0.6877668
97	0xbec9f96b	-0.39448103
98	0xbd166fe9	-0.03672782
99	0xbd65a059	-0.056061123
100	0xbcb5d9eb	-0.022198638
101	0xbd0d18ba	-0.03444741
102	0xbd1a8471	-0.037723962
103	0x3d21f911	0.03954417
104	0xbd88dac9	-0.06682355
105	0xbdd01ba4	-0.10161522
106	0xbda035ac	-0.07822737
107	0xbc43e304	-0.01195598
108	0x3d5c6b46	0.05381324
109	0xbd347a2c	-0.044061825
110	0xbd47e434	-0.048801616
111	0xbd22578e	-0.03963428
112	0xbd98dfcd	-0.074645616
113	0xbd425791	-0.04744679
114	0xbca9556c	-0.020670615
115	0xbcfc18c1	-0.030773522
116	0xbd0c3b91	-0.034236494
117	0xbd5dbabf	-0.054133173
118	0xbd0c286f	-0.034218248
119	0xbd3ea9da	-0.0465487
120	0xbe1804e3	-0.14845614
121	0xbde09978	-0.10966772
122	0x3ca0f36e	0.019647326
123	0x3dbf96f3	0.09354963
124	0x3c981a80	0.018567324
125	0xbd353d6c	-0.04424803
126	0x3c134e2e	0.008990807
127	0xbd881c4c	-0.06646022
128	0xbda3745d	-0.07981179
129	0xbd168aed	-0.036753584
130	0x3c190b89	0.009341129
131	0xbdb0a426	-0.08625059
132	0x3d5daea0	0.054121614
133	0x3ab04cb8	0.0013450598
134	0xbd252381	-0.040317062
135	0xbe043b89	-0.12913336
136	0xbc80c701	-0.015719892
137	0xbd5a9328	-0.053362995
138	0x3b428cd7	0.0029685998
139	0x3d6c831e	0.05774223
140	0xbd7996c8	-0.06093481
141	0xbd925b3c	-0.07146308
142	0xbdb91857	-0.090378456
143	0xbd8a5c7e	-0.06755923
144	0xbd056cf5	-0.032574613
145	0x3bcd795b	0.00627057
146	0x3c957797	0.018245501
147	0xbe308f8b	-0.17242257
148	0xbdfe3643	-0.12412693
149	0x3e16f7a0	0.14742899
150	0xbdac39db	-0.084094726
151	0x3ded5e64	0.11590269
152	0xbdd061ae	-0.10174881
153	0xbd1b0dfc	-0.037855133
154	0xbd99c0da	-0.07507487
155	0xbd7b9c5e	-0.06142842
156	0x3da11997	0.07866209
157	0x3e835d77	0.25657246
158	0x3e54695e	0.2074332
159	0x3e0b82d4	0.13624126
160	0x3d39533b	0.04524539
161	0x3c8cc974	0.017185904
162	0xbe90afc1	-0.2825909
163	0xbdcfda4a	-0.10149057
164	0x3f0d5c30	0.5521879
165	0x3dea8715	0.11451546
166	0xbba9857a	-0.0051733823
167	0xbdf5a3e1	-0.11994148
168	0xbbdc5189	-0.006723587
169	0xbe9f4fa4	-0.31115448
170	0xbebbe98b	-0.36701617
171	0xbdf2b888	-0.11851603
172	0xbf48c70d	-0.7842873
173	0xbec497ef	-0.38397166
174	0xbe7cf33e	-0.24702165
175	0xbf0c720b	-0.54861516
176	0xbed23aeb	-0.41060576
177	0xbf0bba04	-0.5458071
178	0x3e325508	0.1741525
179	0xbdd2335a	-0.10263701
180	0xbf8465e8	-1.0343599
181	0xbeefc703	-0.4683152
182	0xbd58a7fb	-0.052894574
183	0xbf018c50	-0.50604725
184	0xbebfaf96	-0.3743865
185	0x3ead3859	0.33832052
186	0x3edc9856	0.43084973
187	0x3d000c62	0.03126181
188	0xbdcb8b5b	-0.09938689
189	0xbe315ff7	-0.17321764
190	0x3dcd0038	0.10009807
191	0xbd89e9a6	-0.06734018
192	0x3e411599	0.18855895
193	0x3e8e7449	0.27823094
194	0x3d6feb8a	0.058574237
195	0xbdc9e112	-0.09857382
196	0xbcfbfad7	-0.030759258
197	0xbccc6c82	-0.024954084
198	0xbdc324ec	-0.09528527
199	0xbbe39581	-0.0069453125
200	0x3cd255e5	0.025675723
201	0xbc5094df	-0.012730806
202	0x3af77a0d	0.0018880978
203	0x3cb9f427	0.022699429
204	0xbe010c95	-0.12602456
205	0x3d4480fe	0.04797458
206	0xbcaa40fb	-0.020782938
207	0x3d33275a	0.0437387
208	0x3d4420dd	0.047882903
209	0xbad670b9	-0.0016360498
210	0x3ad907be	0.0016558093
211	0xbcac02f5	-0.020997504
212	0x3c8e3bb8	0.01736246
213	0x3cea737b	0.028619519
214	0xbd63b5c6	-0.055593275
215	0x3b81062a	0.0039375024
216	0xbb284ff0	-0.0025682412
217	0xbdb3561d	-0.08756659
218	0xbd5529a9	-0.052041683
219	0xbdf0bd4f	-0.11754858
220	0xbe1e222c	-0.15442723
221	0x3ca031a4	0.01955492
222	0xbd81bb74	-0.06334582
223	0x3d7b2fb1	0.06132478
224	0xbc977714	-0.018489398
225	0xbd132b12	-0.035929747
226	0x3dbb5f7a	0.0914907
227	0x3ca15604	0.019694336
228	0x3b2999d6	0.0025879047
229	0xbd7580ab	-0.05993716
230	0xbba9e869	-0.005185176
231	0xbd2061da	-0.03915582
232	0x3d786d6d	0.06065123
233	0xbddccb5d	-0.10780976
234	0xbd3f5187	-0.04670861
235	0xbc951b3b	-0.018201461
236	0x3c794794	0.015214819
237	0x3c78f22d	0.015194458
238	0x3d2faadf	0.042887565
239	0x3db1f5c1	0.08689452
240	0xbc302cab	-0.010752837
241	0x3d43720a	0.047716178
242	0x3ca9971d	0.02070194
243	0x3c81fee1	0.015868606
244	0x3ca0ef69	0.01964541
245	0xbede5093	-0.43420848
246	0xbea03b56	-0.3129527
247	0x3e15f816	0.14645419
248	0x3e1dfb45	0.15427883
249	0xbe671d0b	-0.22569673
250	0xbdc376d0	-0.09544146
251	0xbc439534	-0.011937428
252	0xbe86aa89	-0.26301983
253	0xbe08b758	-0.1335119
254	0xbe0f3104	-0.13983542
255	0x3dc24c73	0.09487238

classifier.1.bias f4 [10]
0	0x3e3a4def	0.18193792
1	0x3f12ceba	0.5734669
2	0xbdc728bf	-0.097245686
3	0x3e01754f	0.12642406
4	0xbcd12afa	-0.025533188
5	0x3cd5df19	0.026107358
6	0xbc7c1844	-0.015386645
7	0x3de5ae5c	0.11214897
8	0x3d2a0531	0.041508857
9	0x3ca68af6	0.020329934
